rlsolver/methods/eco_s2v/pretrained_agent/eco/network_best_BA_20spin.pth (torch_old, 236839 bytes, 11 tensors)

node_init_embedding_layer.0.weight f4 [64, 7]
0	0x3a9e0dcf	0.0012058559
1	0x3d8346a5	0.06409959
2	0x3d22c525	0.039738793
3	0xbd72802d	-0.05920427
4	0x3a28c05d	0.0006437356
5	0xbbcf4cdb	-0.0063263006
6	0xbcc5a511	-0.024126561
7	0x3c959022	0.018257204
8	0x3c520259	0.012817943
9	0x3d285eb7	0.041105952
10	0x3c099bdf	0.008398979
11	0xbafa5a8b	-0.001910047
12	0x3dac71a4	0.08420113
13	0xbd9e1bdc	-0.077201575
14	0x3d05ff12	0.032713957
15	0xbd520188	-0.05127099
16	0x3cd5a86e	0.02608129
17	0x3cccb899	0.024990367
18	0xbae737df	-0.0017640552
19	0x3c52ff29	0.012878218
20	0x3d5fe168	0.054658324
21	0x3c491da3	0.012275132
22	0x3dd235f3	0.10264196
23	0xbc487fad	-0.0122374715
24	0xbc53a8a6	-0.012918627
25	0x3b68e418	0.0035536345
26	0x3cafd5c2	0.021464232
27	0x39c90ceb	0.00038347332
28	0x3bb0135d	0.005373402
29	0x3d712d99	0.058881376
30	0x3d0f7a4b	0.035028737
31	0xbd5a6c84	-0.053326145
32	0x39f627cf	0.00046950436
33	0x3d79f1b7	0.061021533
34	0xbcc0108b	-0.023445388
35	0x3c01e317	0.007927678
36	0x3d05647b	0.03256653
37	0x3e1421fa	0.14466086
38	0xbd72cddf	-0.059278365
39	0x3b8ef429	0.0043626023
40	0xbd45da3a	-0.04830382
41	0xbc23fdcf	-0.010009243
42	0x3779eba5	1.4896422e-05
43	0x3d844dd4	0.06460157
44	0x3d989524	0.07450321
45	0xbaa67fc0	-0.0012702867
46	0xb9f74ac0	-0.00047167204
47	0xbc85c920	-0.016331255
48	0x3c80e6fe	0.015735146
49	0x3c597896	0.013273379
50	0xbd85ab27	-0.06526785
51	0x3beb92ad	0.007189116
52	0x3d8f9f09	0.070127554
53	0x3a030417	0.0004997863
54	0xbc49c9da	-0.012316192
55	0x3d20d17a	0.039262272
56	0xbdf61c48	-0.12017113
57	0x3c181d47	0.009284324
58	0x3d9bae08	0.07601553
59	0xbc02e160	-0.007988304
60	0x3b34bf5e	0.0027579884
61	0x3cdcd7ff	0.026958464
62	0xb90fde31	-0.00013720315
63	0xbd93c9ef	-0.0721625
64	0x3c3eb8ed	0.011640769
65	0x3dc0ab91	0.09407724
66	0xbbd18711	-0.006394275
67	0xbb37adc6	-0.002802716
68	0x3d26a4b9	0.040684436
69	0x3bcbae42	0.0062158415
70	0x3a6b7aaf	0.000898282
71	0xbd7d3b08	-0.061823875
72	0xbbff5561	-0.0077921604
73	0x3b2584cb	0.0025256153
74	0x3a533778	0.0008057277
75	0x3d5ade85	0.053434867
76	0xbd07698e	-0.03305965
77	0x3bdc9a7f	0.0067322846
78	0xbd341ee4	-0.043974772
79	0xbd0e3251	-0.034715954
80	0x3ce39f69	0.027785974
81	0xbc06cd17	-0.008227608
82	0xbc55e0ec	-0.013054114
83	0x3d794c45	0.060863752
84	0xb97a3cab	-0.00023864458
85	0x3d84865e	0.06470941
86	0x3dc2fc96	0.09520833
87	0xbc95cd4f	-0.018286375
88	0x3bcec39b	0.006309939
89	0xbda0fdfd	-0.078609444
90	0x3c377129	0.011196413
91	0x3a9c114b	0.0011907009
92	0x3d9e529e	0.07730602
93	0x3cd9a4be	0.026567813
94	0xbd969969	-0.073534794
95	0x3a054551	0.00050838763
96	0xbba31703	-0.0049771084
97	0xbc7034c0	-0.014661014
98	0x3aa2ecf8	0.0012430241
99	0x3d6cf1ec	0.057847902
100	0x3cf0fade	0.029416498
101	0xbd6a6f6c	-0.057235166
102	0x3a2ee135	0.00066711317
103	0x3d084ac4	0.033274427
104	0xbc9e7727	-0.019343926
105	0x3a085142	0.00052000966
106	0x3dc55738	0.09635776
107	0x3d4aa717	0.049475756
108	0x3b5f3e31	0.0034064169
109	0xb9329d4a	-0.00017033998
110	0xbd964c1f	-0.07338738
111	0x3c55bb8f	0.013045206
112	0x3c293cc0	0.010329425
113	0xbda2db4a	-0.07951982
114	0x3cda629d	0.02665835
115	0xbcb7988d	-0.022411609
116	0x3c4af490	0.01238741
117	0x3afcadf8	0.0019277921
118	0x3cb929b3	0.022602892
119	0x3bf48d4a	0.007463132
120	0xbd9366b9	-0.07197327
121	0xbc158ad8	-0.009127341
122	0x3cf76e9b	0.030204108
123	0xbbaeedb3	-0.0053383945
124	0x3c3a9924	0.011389051
125	0x3d04b74b	0.032401364
126	0x3b836266	0.0040095327
127	0x3ce13d65	0.027495096
128	0x3ae5b22a	0.001752441
129	0x3d0769a2	0.033059724
130	0x3bc0737d	0.0058731423
131	0xbdb4bdee	-0.08825289
132	0xbd0f088c	-0.03492026
133	0x3c754b64	0.014971588
134	0xbd93c69c	-0.07215616
135	0x3ca12754	0.019672073
136	0x3b369cae	0.0027864384
137	0x3bde2974	0.006779844
138	0x3c85a23b	0.01631271
139	0x3d63bbba	0.055598952
140	0xbacbc854	-0.0015547373
141	0xbc5236e9	-0.012830474
142	0xbc8e85bb	-0.017397752
143	0x3b0a7ee0	0.0021132752
144	0xbcba79bd	-0.022763127
145	0x3bb6d2b0	0.005579315
146	0xbcfb510a	-0.03067829
147	0x3c01a388	0.007912524
148	0xbd437c0d	-0.047725726
149	0xbbfb864e	-0.0076759225
150	0xbd5ede4d	-0.05441122
151	0x3a3e86cd	0.00072680117
152	0x3bc41d68	0.005984951
153	0x3ce06997	0.0273941
154	0xbc7d8ec2	-0.015475931
155	0xbdf03888	-0.117295325
156	0x3c8adf6d	0.01695224
157	0xbc83c0e0	-0.01608318
158	0x3abcca50	0.0014403556
159	0x3c6ade90	0.01433529
160	0x3c396c26	0.0113172885
161	0xbc287ddb	-0.0102839125
162	0xbca91e56	-0.020644348
163	0xbcda4384	-0.026643522
164	0x3d06c8d0	0.032906353
165	0x3b5267c6	0.003210531
166	0xbe25d1f9	-0.1619338
167	0xbccc59d1	-0.024945172
168	0x3c6cdd91	0.014457122
169	0x3e3920fd	0.1807899
170	0xbea0daf6	-0.31417054
171	0xbc27d0a0	-0.010242611
172	0xbb09e174	-0.0021038922
173	0x3cb254dc	0.02176898
174	0x3db63c6a	0.08898242
175	0x3c1f2427	0.009713209
176	0xbdb21b39	-0.086965986
177	0x3c8f7574	0.01751206
178	0x3d3897dc	0.0450667
179	0xbb35deae	-0.0027751136
180	0xbb1ad6b9	-0.002362652
181	0x3cafbe96	0.021453183
182	0x3cdab1a3	0.026696032
183	0x3d3e9e2c	0.046537563
184	0xbcbbbca9	-0.022917109
185	0x3bb0d017	0.0053959
186	0x3cfc15f8	0.030772194
187	0x3cd21f27	0.02564962
188	0x3c43e724	0.011956964
189	0x3b8a5639	0.0042217043
190	0x3c50cc32	0.012743996
191	0x3dce8850	0.10084593
192	0x3ad3d932	0.0016162752
193	0xbc6c4225	-0.014420067
194	0x3dc65680	0.09684467
195	0x3c16b334	0.009197999
196	0x3c4da265	0.012550925
197	0xbd017664	-0.031607047
198	0x3c94e81e	0.018177088
199	0xbcce70a9	-0.025200205
200	0xbb48223d	-0.0030537986
201	0x3d25d836	0.040489398
202	0x3d25295c	0.040322646
203	0x3a88cda8	0.0010437267
204	0x3d7b6cf5	0.061383206
205	0x3ce40706	0.02783538
206	0xbd7625ef	-0.06009477
207	0x3a0c40b7	0.00053502194
208	0x3c8b6898	0.017017648
209	0xbc930748	-0.017947808
210	0x3cd0ece0	0.025503576
211	0x3cdbdc9e	0.026838597
212	0x3d52d59e	0.051473252
213	0x3ccaf19a	0.024773408
214	0xbc4532a9	-0.012036004
215	0x3dcbc052	0.099487916
216	0xbc3c1475	-0.011479487
217	0x3b8cdd77	0.0042988616
218	0xbda668af	-0.081254356
219	0xbb3f3d77	-0.0029180923
220	0x3d7e2b6d	0.062053133
221	0x3c0cc5fa	0.008592123
222	0xbce507a1	-0.02795774
223	0x3d2f005b	0.04272495
224	0x3cc87dc2	0.024474028
225	0xbc755d48	-0.014975853
226	0x3d4603e3	0.04834355
227	0xbca000cd	-0.019531632
228	0xbbc49426	-0.005999106
229	0x3d788838	0.060676783
230	0x3d7711d4	0.060319737
231	0x3badcf46	0.00530425
232	0x3c97f035	0.018547157
233	0x3da888a4	0.08229187
234	0xbc6b2c1b	-0.014353777
235	0xbc121d0e	-0.00891806
236	0x3db889ca	0.09010656
237	0xbc0076f8	-0.007840864
238	0xbaa3edf2	-0.0012506826
239	0xbdf63418	-0.12021655
240	0x3c8555a3	0.016276186
241	0x3b8c79d7	0.0042869854
242	0xba32f9a3	-0.000682736
243	0xbd1de6e7	-0.038550284
244	0xbbb1b394	-0.0054230187
245	0x3cbeb9d2	0.023281965
246	0xbc53d7e4	-0.01292989
247	0x3c1477b1	0.00906174
248	0xbb726c9c	-0.0036991006
249	0x3be3dbb5	0.0069536814
250	0xbe208d68	-0.15678942
251	0xbc2436e3	-0.010022852
252	0x3b478093	0.0030441626
253	0xbd98fa98	-0.07469672
254	0x3d6ff1a2	0.05858005
255	0xbac7eabf	-0.0015252455

edge_embedding_layer.edge_embedding_NN.weight f4 [63, 8]
0	0xbdad9418	-0.08475512
1	0xbc07e9a5	-0.008295451
2	0xbcd3abe6	-0.025838803
3	0xbcec845d	-0.02887171
4	0x3c805d37	0.015669448
5	0xbab8319e	-0.0014052873
6	0xbcf184d2	-0.029482279
7	0xbd1076f7	-0.035269704
8	0x3d814593	0.06312098
9	0x3cd3f2ff	0.025872706
10	0x3c8ef764	0.01745195
11	0xbd944315	-0.072393574
12	0xbc933842	-0.017971162
13	0x3aa4f69d	0.0012585704
14	0x3d12174d	0.035666753
15	0xbd03766b	-0.032095354
16	0xbd85b87d	-0.06529329
17	0x3ca66743	0.02031291
18	0x3d3e46b8	0.04645416
19	0xbd10d4af	-0.03535908
20	0xbc83fb7f	-0.016111134
21	0xbc57bcd6	-0.013167581
22	0x3d636933	0.055520248
23	0xbcfd4fb0	-0.030921787
24	0x3dd2d53f	0.1029458
25	0x3d0b11f9	0.033952687
26	0x3ca2db2f	0.019879906
27	0x3c95315f	0.018212019
28	0xbbfc90eb	-0.0077077053
29	0x3c78c690	0.01518406
30	0x3d862221	0.06549478
31	0x3cf94d3b	0.030432334
32	0xbae14d5b	-0.0017189191
33	0xbb8f08d1	-0.0043650647
34	0x3dc8f1db	0.09811755
35	0xbd45d6be	-0.048300497
36	0x3b7d9e21	0.0038698989
37	0x3c0073f2	0.0078401435
38	0x3d0df42d	0.034656692
39	0x3c274dd5	0.010211428
40	0x3da2b82c	0.07945284
41	0x3cbd8284	0.023133524
42	0xbbcfae70	-0.0063379332
43	0xbd3c716c	-0.046006605
44	0x39503a07	0.00019858043
45	0x3b0096d7	0.0019621158
46	0x3be9deea	0.007137169
47	0xbd517feb	-0.051147383
48	0xbd8dc0ea	-0.06921561
49	0x3b4e4fb8	0.0031480622
50	0x3d2cfbd1	0.04223234
51	0xbccdae25	-0.025107453
52	0xbc64ff69	-0.01397691
53	0xbc43d768	-0.011953212
54	0x3d384173	0.044984292
55	0xbd22967f	-0.039694306
56	0x3d18f990	0.037347376
57	0x3b154e1d	0.0022782155
58	0x3c9e343a	0.019312013
59	0xbcd6618f	-0.026169566
60	0x3be13d48	0.0068737604
61	0xbc3a031d	-0.011353281
62	0x3da53631	0.08066977
63	0xbd98c46c	-0.074593395
64	0xbd9206a4	-0.07130173
65	0x3bbe9ec6	0.005817267
66	0x3c094294	0.00837769
67	0xbd5da89e	-0.054115884
68	0xbc8f32aa	-0.017480213
69	0xbc21ad92	-0.009868043
70	0x3d399710	0.04531008
71	0xbcca6f3b	-0.024711242
72	0x3d8db265	0.06918792
73	0x3b38f38d	0.002822134
74	0x3ce2607e	0.027633902
75	0xbd1b4b29	-0.037913475
76	0xbc9af08f	-0.018913535
77	0xbbe99d8d	-0.007129377
78	0x3d46b987	0.048516776
79	0xbd730b04	-0.059336677
80	0x3c1490ea	0.009067753
81	0x3ba37c93	0.0049892156
82	0x3c44c7c6	0.01201052
83	0x3cfadd1e	0.030623015
84	0x3c254801	0.010087968
85	0x3b6ecebc	0.0036439141
86	0x3c972aa7	0.018452955
87	0x3d9c8bb8	0.07643837
88	0x3c9db378	0.019250616
89	0x3b42a4c4	0.0029700259
90	0xbc0ff282	-0.008785846
91	0x3d2e16e3	0.042502295
92	0x3bceec71	0.006314807
93	0x3b762183	0.0037556596
94	0x3cddf0c4	0.027092345
95	0x3d65a451	0.056064907
96	0x3cab9e88	0.020949617
97	0xbb6d0059	-0.0036163537
98	0xbc80005b	-0.01562517
99	0x3d031bd1	0.03200895
100	0x3d13dfeb	0.036102217
101	0x39ce977a	0.0003940424
102	0x3d0b8dad	0.03407066
103	0x3d5a33b9	0.053271983
104	0x3d9d1ed0	0.07671893
105	0xbbe4f925	-0.006987708
106	0x3d3cc8ff	0.046090122
107	0xbcdeaa2d	-0.027180756
108	0xbcd6e58f	-0.026232509
109	0xbc12282b	-0.00892071
110	0x3d47771c	0.048697576
111	0xbd5f1508	-0.054463416
112	0xbdb1555a	-0.08658858
113	0x3ca85024	0.020546027
114	0xbc82870d	-0.015933538
115	0xbc54e0da	-0.012993062
116	0x3c29f2de	0.010372845
117	0xbb539f69	-0.003229106
118	0xbb3bef37	-0.0028676519
119	0xbd531775	-0.051536042
120	0x3b717210	0.0036841668
121	0x3c5239e7	0.012831188
122	0x3cbdbda3	0.023161715
123	0x3d009045	0.031387586
124	0x3cf732ee	0.030175652
125	0xbbd8ea3b	-0.0066197193
126	0xbb4e36ec	-0.0031465841
127	0x3d14b76a	0.03630773
128	0x3d9b04f0	0.07569301
129	0xbc1b07de	-0.009462325
130	0xbcf934a6	-0.030420613
131	0xbd2bfb00	-0.04198742
132	0x3aa3603c	0.0012464593
133	0xb9d7bb38	-0.00041147484
134	0xbbb0e7a3	-0.005398707
135	0xbd01ca6c	-0.031687185
136	0x3ca485cb	0.020083329
137	0xbae9d574	-0.0017840103
138	0xbc677012	-0.014125841
139	0x3d168a5a	0.036753036
140	0x3d03ed02	0.03220845
141	0xb9c30f99	-0.0003720492
142	0x3d05dfcb	0.03268413
143	0x3d4e88e1	0.050423507
144	0x3c00a2d2	0.007851319
145	0x3ce612b0	0.028085083
146	0xbc480d1c	-0.012210157
147	0x3d424282	0.047426708
148	0xbc419aa6	-0.011816656
149	0x3b3fbca9	0.0029256737
150	0x3d1c1340	0.038104296
151	0x3d8cf407	0.06882482
152	0x3d7ba5ea	0.061437525
153	0xbcaea0ea	-0.021316964
154	0x3c886eb7	0.016654355
155	0xbc75176d	-0.014959198
156	0xbc0ade88	-0.008475907
157	0x3b9fb56a	0.004873921
158	0x3ba2b88e	0.0049658483
159	0xbd3ccb59	-0.046092365
160	0x3cbce846	0.023059975
161	0xbb2f33f6	-0.0026733852
162	0xbcb42bfb	-0.021993628
163	0x3d50cb3f	0.05097508
164	0x3b9759a9	0.0046188426
165	0x3b9ea884	0.004841866
166	0x3d053a4b	0.032526296
167	0x3d5871cc	0.0528429
168	0x3c83c839	0.016086685
169	0xba79ed2f	-0.00095339393
170	0xbce65211	-0.028115304
171	0x3d388cd4	0.04505618
172	0xbc579625	-0.013158356
173	0x3a1f7d65	0.0006084054
174	0x3d346507	0.04404166
175	0x3d1cd18a	0.03828577
176	0x3dc8a40e	0.09796916
177	0xbb43d55e	-0.0029881815
178	0xbc5598e4	-0.01303694
179	0xbd00fcbb	-0.031491023
180	0x3b91c58c	0.0044485983
181	0x39328fcc	0.00017028971
182	0xbcc48564	-0.023989387
183	0xbc80df0c	-0.015731357
184	0x3c010c2f	0.00787644
185	0xbc74172a	-0.014898101
186	0x3c3d6e05	0.011561875
187	0x3cc20748	0.023685113
188	0x3cbd791b	0.023129037
189	0x3be75c1f	0.0070605422
190	0xbbdc7913	-0.0067283004
191	0x3d2fa63a	0.042883135
192	0x3c91bad5	0.017789284
193	0xbb3ad4c1	-0.002850816
194	0xbc426f23	-0.011867317
195	0x3d2f7ab6	0.042841636
196	0x3c77cb7c	0.015124198
197	0x3a825c32	0.0009945689
198	0x3cfb623d	0.030686492
199	0x3d1172cc	0.03550987
200	0x3caeee8f	0.021353988
201	0x3c94bbf2	0.018156026
202	0xbca50f2b	-0.020148834
203	0x3d91505c	0.070954055
204	0x3c010dad	0.007876796
205	0xbca0c170	-0.019623488
206	0x3c5846f6	0.013200512
207	0x3d19530b	0.03743271
208	0x3c9db7a6	0.01925261
209	0x3acfea4e	0.0015862675
210	0xbc9718b8	-0.018444404
211	0x3d02acf2	0.031903215
212	0x3baeca91	0.0053342064
213	0x3c30d343	0.010792556
214	0x3cb5498f	0.022129802
215	0x3d8b4e22	0.06802012
216	0xbdce5d91	-0.1007644
217	0x3c0b19ad	0.008490008
218	0x3c260093	0.010131973
219	0xbca19cf7	-0.019728167
220	0x3baa949d	0.0052057044
221	0xbb478a65	-0.003044748
222	0xbb6846f9	-0.0035442694
223	0xbc1f6bd8	-0.009730302
224	0x3ce9f900	0.028561115
225	0x3bfaff67	0.007659841
226	0xbc9cff8d	-0.019164825
227	0x3d81314f	0.06308233
228	0x3cdacff1	0.026710482
229	0xbcecb1ce	-0.028893378
230	0x3bd0da37	0.0063736695
231	0x3c0ff069	0.008785346
232	0x3c0f4199	0.008743667
233	0x3b5c2a17	0.0033594423
234	0xbc652603	-0.0139861135
235	0x3d400ee6	0.04688921
236	0x3c3f5680	0.011678338
237	0xba7f9dae	-0.0009750974
238	0x3d016919	0.03159437
239	0x3d8bd307	0.0682736
240	0xbdc0be6f	-0.09411322
241	0x3b0498fa	0.0020232783
242	0x3c149f99	0.009071254
243	0xbcf4d1d2	-0.029885206
244	0x39d6e5f7	0.00040988598
245	0x3986ae10	0.00025688158
246	0xbc519d2e	-0.012793822
247	0xbd59cf40	-0.053176165
248	0x3db364da	0.0875947
249	0x3c0c4b66	0.008562898
250	0x3ccdf4dc	0.025141172
251	0xbd172c92	-0.03690774
252	0xbc7965f8	-0.015222065
253	0x3b261305	0.0025340926
254	0x3c41300c	0.01179124
255	0xbd3d3f99	-0.04620323

edge_embedding_layer.edge_feature_NN.weight f4 [64, 64]
0	0x3d1a6692	0.037695475
1	0xbcf9e850	-0.030506283
2	0x3c5575cf	0.013028576
3	0xbc2c0ba7	-0.010500825
4	0xbd5cec37	-0.05393621
5	0x3c2fe660	0.010736078
6	0x3cf5c5dd	0.030001575
7	0xbc725fab	-0.014793317
8	0x3d3af3aa	0.045642532
9	0xbceff5ff	-0.029292105
10	0x3c1d037e	0.009583352
11	0x3b8588a7	0.004075128
12	0x3c9c28dc	0.019062452
13	0xbd2cf023	-0.0422212
14	0x3cc092b3	0.023507452
15	0xbceab43b	-0.028650394
16	0xbc195737	-0.009359173
17	0x3c93f10e	0.01805928
18	0xbce63b9e	-0.0281046
19	0x3b30523b	0.0026904482
20	0x3cb335eb	0.021876296
21	0x3c268871	0.010164366
22	0x3c7bcdb0	0.015368864
23	0x3cc0c058	0.023529217
24	0x3cb8a7f4	0.022541024
25	0xbd07d318	-0.0331603
26	0x3bb6bb54	0.0055765305
27	0x3c8c0ab1	0.017094942
28	0xbcb4ed8b	-0.022085926
29	0x3bac9172	0.005266362
30	0x3d4b7d26	0.049679898
31	0x3c4a1280	0.012333512
32	0xbb0d75dc	-0.0021585142
33	0x3cef5497	0.02921514
34	0x3a988e9a	0.0011639178
35	0x3c0c6191	0.0085681835
36	0xbccaadbf	-0.024741052
37	0x3d260cb9	0.040539477
38	0x3b824d74	0.0039765183
39	0x3d262502	0.040562637
40	0x3c6ebf20	0.014571935
41	0x3bce6663	0.0062988265
42	0x3d260199	0.040528867
43	0xbd1da165	-0.038483996
44	0xbc4b7fd5	-0.012420614
45	0xba2fa45f	-0.00067002134
46	0x3d86ba0a	0.06578453
47	0x3cf36638	0.029711828
48	0x3cd57556	0.026056927
49	0xbb51c85d	-0.0032010295
50	0xbca9970c	-0.020701908
51	0x3cda303b	0.026634326
52	0xb95e3d88	-0.00021194492
53	0x3d4ff0c6	0.05076673
54	0x3cb951c9	0.022622006
55	0x3d982270	0.074284434
56	0xbc9b8b10	-0.018987209
57	0x3cbc2634	0.022967435
58	0xbd862513	-0.0655004
59	0x3c19b257	0.009380898
60	0x3b1faab7	0.0024363229
61	0x3b4d4d24	0.0031326497
62	0x3df94372	0.12171067
63	0xbcd21457	-0.025644464
64	0xbabe30e4	-0.001451042
65	0x3bc9a137	0.0061532515
66	0x3bc15d04	0.005900981
67	0xbab9cde9	-0.0014175746
68	0xbc8d7738	-0.017268762
69	0x3b3a3f49	0.0028419069
70	0xbb9c1f76	-0.0047644926
71	0x3b38466d	0.002811815
72	0xbbdb29ad	-0.0066883177
73	0xb9d2b886	-0.00040191802
74	0xbbdffd1f	-0.0068355943
75	0xbc107cdc	-0.008818831
76	0xbc3f40ac	-0.011673134
77	0x3b7216d8	0.0036939885
78	0xbc22e887	-0.009943134
79	0xbce76a57	-0.028248949
80	0xbc00f7b6	-0.007871559
81	0x3c23adad	0.009990138
82	0x3af4ea69	0.0018685582
83	0xbaa29a09	-0.0012405525
84	0xbc2bc36d	-0.010483605
85	0xbc1ff12e	-0.009762092
86	0xbb33cd7f	-0.0027435718
87	0xbbc85c18	-0.006114494
88	0x3c5d47d8	0.013505898
89	0x38367a12	4.350587e-05
90	0x3c4ea8ad	0.012613458
91	0x3c5f0453	0.013611871
92	0xbc41530e	-0.011799587
93	0xb94b1c56	-0.00019370145
94	0xbb03df4d	-0.0020122111
95	0xbc09d9e0	-0.008413762
96	0xbc1b1631	-0.00946574
97	0xbaca73b3	-0.0015445858
98	0xbb298ce3	-0.0025871329
99	0x3c20ebae	0.009821815
100	0x3bddfc9c	0.006774498
101	0xbb8d84ea	-0.004318823
102	0xbb96111c	-0.0045796763
103	0xbbdace25	-0.0066774064
104	0x3c0b2e93	0.008494991
105	0xbb7c445f	-0.00384929
106	0xba4a1c8c	-0.00077099423
107	0x3bd48bdf	0.0064864005
108	0x3ab49a66	0.0013778924
109	0x3acf0bc1	0.001579635
110	0x3bfea2da	0.0077708783
111	0xbb8bff14	-0.004272351
112	0x3bb3c2b4	0.005485857
113	0xba9f855c	-0.0012170481
114	0x3bedcc51	0.0072570224
115	0x3b567a00	0.0032726526
116	0xbb81c6cc	-0.003960466
117	0xbbcefc0a	-0.0063166665
118	0x3c3a4b57	0.0113705015
119	0x3a89d548	0.0010515833
120	0x3ba88b91	0.0051435907
121	0x3bb14eef	0.005411021
122	0x3c3fd836	0.011709264
123	0xbc8dfa0a	-0.017331142
124	0xbaa10b63	-0.0012286719
125	0xbb315a76	-0.0027061976
126	0xbc23727e	-0.0099760275
127	0xbcc26d80	-0.023733854
128	0x3d7cb72d	0.061698128
129	0x3cf50ac0	0.029912353
130	0x3cd472b3	0.0259336
131	0x3a34f95a	0.00069036114
132	0xbd85c515	-0.06531731
133	0x3ceaafdc	0.02864831
134	0x3d2b5a51	0.04183418
135	0x3d6332b8	0.05546829
136	0x3d7b5e30	0.06136912
137	0x3cc9ec9d	0.024648959
138	0xbc3cb901	-0.011518718
139	0xbba2c58e	-0.004967398
140	0xbce7befe	-0.028289314
141	0x3cdadd5c	0.02671688
142	0x3d5677b9	0.05236027
143	0xbc9c4ee3	-0.019080585
144	0xbb459480	-0.0030148327
145	0xbd004c81	-0.03132296
146	0xbd61ad7a	-0.05509708
147	0x3d35795a	0.044305183
148	0xbc7db8b4	-0.015485931
149	0xbc598202	-0.013275625
150	0x3ca0b9a5	0.019619772
151	0xbabc9d2c	-0.0014390103
152	0xbc89ac1c	-0.016805701
153	0xbd739c02	-0.059474953
154	0xbd10609e	-0.03524839
155	0x3d702fea	0.058639444
156	0xbcd58f66	-0.026069354
157	0xbccf0ea7	-0.025275541
158	0x3d67d58f	0.05660015
159	0x3d6d76d4	0.05797465
160	0x3c9c7622	0.019099299
161	0x3b39ffbd	0.0028381192
162	0xbceaa6c9	-0.028643982
163	0xbc66b375	-0.014080872
164	0x3ccfe025	0.025375435
165	0x3d50ae88	0.050947696
166	0x3d1aba1a	0.037775137
167	0x3d08727f	0.033312317
168	0x3d265263	0.040605914
169	0xbc5587bb	-0.013032849
170	0x3ccdefe4	0.025138803
171	0x3cbc6882	0.022999052
172	0x3c9e116f	0.019295422
173	0x3d77f2ae	0.06053417
174	0x3d0079f9	0.031366322
175	0x3d9d7975	0.07689182
176	0x3d6a7a76	0.057245694
177	0x3cf85a63	0.030316537
178	0x3c82c830	0.015964597
179	0x3d6346ac	0.05548732
180	0x3c5bd0e1	0.0134165
181	0x3d6b7643	0.05748583
182	0x3d930bba	0.07179971
183	0x3d88fe81	0.06689168
184	0x3d042592	0.032262392
185	0x3cbec81c	0.023288779
186	0xbd096dbf	-0.033551928
187	0x3d3ec850	0.04657775
188	0x3d87926d	0.066197254
189	0x3d6824ba	0.05667565
190	0x3ce294db	0.02765887
191	0x3d13fcac	0.03612964
192	0xbccb1025	-0.024787972
193	0xbc17d41b	-0.0092668785
194	0xbc825b41	-0.015912654
195	0x3cc9b74a	0.024623532
196	0x3bf00cd2	0.007325747
197	0x3c05ba4f	0.008162095
198	0xbd190714	-0.037360266
199	0xbc7aa527	-0.015298164
200	0x3c5b70bc	0.013393577
201	0xbcb32176	-0.021866541
202	0x3cba3e65	0.02273483
203	0x3c93add3	0.018027222
204	0x3c76a7d4	0.015054662
205	0xbc910c12	-0.01770595
206	0xbc4824ed	-0.012215835
207	0x3c22a989	0.009928116
208	0x3b8e719c	0.0043470394
209	0x3ca2fcbd	0.019895906
210	0x3d80289f	0.06257748
211	0xbd13dac5	-0.036097307
212	0x3ca3fe48	0.020018712
213	0x3cb0703a	0.021537889
214	0x3bc9272d	0.0061387033
215	0x3c1b3745	0.0094736265
216	0x3c1b8c8d	0.009493959
217	0x3d805d50	0.06267798
218	0x3c933bdc	0.01797288
219	0x3c5c624c	0.01345117
220	0x3d0a31f9	0.033739064
221	0x3caaa4e1	0.020830574
222	0xbbe71297	-0.0070517766
223	0xbb78331a	-0.0037872256
224	0x3b94043b	0.004517106
225	0x3c9ec347	0.019380225
226	0x3cedca8c	0.029027246
227	0x3c873714	0.016505755
228	0xbc9c12b6	-0.01905189
229	0xbc058800	-0.008150101
230	0xbd55783d	-0.05211662
231	0x3c27344f	0.010205342
232	0xbd246f07	-0.040144946
233	0x3d00cab0	0.031443298
234	0x3c88f1fe	0.016716953
235	0x3c468035	0.012115528
236	0x3ca46be7	0.020070983
237	0xbc927f0a	-0.017882843
238	0xbbf43fca	-0.0074538933
239	0xbc6d9530	-0.014500901
240	0xbc49177c	-0.0122736655
241	0xbbd93d43	-0.0066296174
242	0x3c789122	0.015171321
243	0xbd1a4b52	-0.037669487
244	0x3c3d2b05	0.011545901
245	0xbc9b9c68	-0.018995479
246	0x3a78b94d	0.0009488061
247	0xbc56b154	-0.013103802
248	0xbaddca81	-0.0016921313
249	0xbd80c5b1	-0.06287707
250	0x3b8fe3d0	0.004391171
251	0x3c0cc1da	0.00859114
252	0xbcb621de	-0.022232946
253	0x3c146ade	0.009058682
254	0xbd839613	-0.06425109
255	0x3c2d2695	0.010568281

update_node_embedding_layer.0.message_layer.weight f4 [64, 128]
0	0x3b75a556	0.003748258
1	0xbc99186d	-0.018688405
2	0xbbbacebb	-0.0057009137
3	0xbc6d793d	-0.0144942375
4	0x3ac57af9	0.0015066556
5	0x3cfce8a8	0.030872658
6	0xbcb94f77	-0.0226209
7	0xbc13930e	-0.009007229
8	0x3d987829	0.07444794
9	0x3d9ac8f2	0.075578585
10	0xbcef8c72	-0.029241774
11	0xbbc0e0b3	-0.0058861612
12	0xba480b0c	-0.00076310406
13	0x3c5f1d7a	0.013617868
14	0x3d0f1d99	0.034940336
15	0xbc8f0c15	-0.017461816
16	0xbc66cc31	-0.014086769
17	0xbcb58cc6	-0.022161853
18	0x3d201d67	0.03909054
19	0x3b0ebe69	0.0021780974
20	0x3c93a9cb	0.0180253
21	0xbbd2ef15	-0.006437192
22	0xbcb3253f	-0.021868346
23	0xbd37ce1b	-0.044874292
24	0xbcfc054e	-0.030764248
25	0x3b90e685	0.0044220113
26	0x3bfbf75e	0.0076894006
27	0x3ce23ea4	0.02761776
28	0xbb4761cc	-0.0030423282
29	0x3cb3d175	0.021950463
30	0xbd2742ad	-0.04083507
31	0xbc6ea100	-0.014564753
32	0xbb06341a	-0.0020477832
33	0x3c8a75ce	0.016901877
34	0xbcdb31dd	-0.026757175
35	0xbd1790d6	-0.03700336
36	0x3bba61b4	0.0056879167
37	0x3cee4822	0.02908713
38	0x3d2161bc	0.039399847
39	0xbd190a11	-0.037363116
40	0x3b58b985	0.0033069563
41	0x3a1c3554	0.0005958874
42	0x3bb468ef	0.005505673
43	0xbd14310f	-0.0361796
44	0xbba181ff	-0.004928827
45	0x3ca5a8c9	0.020222085
46	0x3d8d1f1b	0.068906985
47	0x3be3803f	0.0069427784
48	0x3bc207ad	0.005921325
49	0xbb7bf4de	-0.0038445513
50	0x3ae1362a	0.001718228
51	0x3c950a0d	0.01819327
52	0xbbcb5d49	-0.006206189
53	0x3b481c08	0.0030534286
54	0xbcbad126	-0.022804808
55	0xbc63c106	-0.013901001
56	0x3c6670c2	0.0140649695
57	0x3957ad76	0.00020568617
58	0xbc85dd71	-0.016340943
59	0xbd3d7ee4	-0.04626359
60	0xbcbb1b69	-0.022840219
61	0x3c49eb91	0.01232423
62	0x3c07c6ea	0.008287171
63	0x3cbdd637	0.023173435
64	0x3c5a0be0	0.013308495
65	0x3c66164c	0.014043402
66	0x3b727161	0.0036993849
67	0xbd29f7ce	-0.04149609
68	0xbd28d706	-0.041220687
69	0x3b39e940	0.0028367788
70	0x3cb43b1a	0.022000838
71	0x3cdeb81f	0.027187405
72	0xbd333941	-0.043755773
73	0x3c384ab4	0.011248279
74	0x3c34ae15	0.0110278325
75	0x3b6269c4	0.0034547905
76	0xbd2db74c	-0.042411134
77	0x3cc27ce7	0.023741199
78	0xbc733eba	-0.014846498
79	0x3c8dd5ae	0.017313804
80	0x3a2fd983	0.0006708132
81	0xbc324258	-0.010880075
82	0xbd4cee60	-0.05003202
83	0x388bd375	6.6674234e-05
84	0xbd26819a	-0.04065094
85	0x3bb90e94	0.00564749
86	0x3c0b3a23	0.008497748
87	0xbc409b5f	-0.011755793
88	0xbbc6abf8	-0.0060629807
89	0xbc8a2275	-0.016862134
90	0xbc521f73	-0.012824881
91	0x3cd4c37e	0.025972124
92	0x3ca45adb	0.020062855
93	0x3b1735a1	0.0023072737
94	0x3b2d02af	0.0026399305
95	0xbd504dd2	-0.050855465
96	0xbcc6b21d	-0.024254853
97	0x3c958d86	0.01825596
98	0xbd331c48	-0.043728143
99	0xbd307df4	-0.04308887
100	0xbcb79e1e	-0.022414263
101	0xbbf05f6e	-0.007335595
102	0xbbba1b3f	-0.0056795175
103	0x3c8e676c	0.0173833
104	0x3b084db6	0.0020798272
105	0xbc8df810	-0.0173302
106	0xbd55ed7f	-0.052228447
107	0xbb3c37cf	-0.0028719788
108	0x3cd0671e	0.025439795
109	0xbd521c34	-0.051296428
110	0x3bce1c5f	0.006290003
111	0x3c8f135e	0.01746529
112	0xbd3b77e1	-0.045768622
113	0xbd243ea8	-0.040098816
114	0xbd758c8f	-0.0599485
115	0xbd74de7b	-0.059782486
116	0xbb07e04e	-0.0020733061
117	0x3bac24df	0.005253419
118	0xbc1d8e8e	-0.009616507
119	0x3c279130	0.0102274865
120	0xbd37c790	-0.044868052
121	0x3bebcfb6	0.007196392
122	0x3b8dac5b	0.004323525
123	0xbb280e6b	-0.002564336
124	0x3b625fd2	0.0034541977
125	0x3bb2c56a	0.0054556625
126	0x3c3c825c	0.0115056895
127	0x3aeffac4	0.0018308987
128	0xbc1bec41	-0.009516777
129	0xbd247874	-0.040153936
130	0xbbad07a6	-0.005280453
131	0xbc1b844d	-0.009491992
132	0xbb2c00e5	-0.002624565
133	0x3cb166f0	0.02165553
134	0xbaca9912	-0.0015456995
135	0x3be1a1f3	0.006885761
136	0x3c203c90	0.009780064
137	0xbc20fd0e	-0.009825958
138	0xbc3f5f88	-0.011680491
139	0x3c0cdc00	0.008597374
140	0x3c2411df	0.010014026
141	0x3c3a3404	0.011364941
142	0x3c4df584	0.0125707425
143	0x3bfcf6a4	0.0077198315
144	0x3c4d3045	0.012523715
145	0x3c21eb00	0.0098826885
146	0x3cc8fb2d	0.024533832
147	0xbbe9adb1	-0.0071313013
148	0xbabdf159	-0.0014491483
149	0xba987c50	-0.0011633728
150	0xbc2c48ed	-0.010515434
151	0xbcb82593	-0.022478854
152	0xbc05fb23	-0.008177551
153	0xbbaf9787	-0.0053586396
154	0xbbd0b061	-0.0063686823
155	0x3c2a78ad	0.010404748
156	0x3c3cdd70	0.011527404
157	0x3d07a1bd	0.03311323
158	0xbcf4d65f	-0.029887376
159	0x3b8b5af3	0.0042527854
160	0x3b074578	0.0020640772
161	0x3d2b8932	0.041878887
162	0x3c7f4fdc	0.015583005
163	0xbcdf0bc6	-0.027227294
164	0x3ccd5930	0.025066942
165	0xbbeab576	-0.007162745
166	0x3d95fbac	0.07323393
167	0xbcc8bd4c	-0.024504326
168	0x3ca3e057	0.020004435
169	0x3bd68312	0.0065463865
170	0x3cccb16b	0.024986943
171	0xbd16dbe2	-0.03683079
172	0xbbb137c1	-0.0054082577
173	0x3a8fd7ec	0.0010974384
174	0x3d284ae1	0.041087035
175	0xbd1b0fe2	-0.037856944
176	0x3bb5dc83	0.0055499687
177	0xbbe1c8e2	-0.006890402
178	0xbcb081a8	-0.0215462
179	0x3ac48806	0.0014994151
180	0x3b4c3336	0.0031158454
181	0x3c6af875	0.014341463
182	0xbcb99565	-0.022654245
183	0xbc4642ce	-0.012100888
184	0x3b01e954	0.0019822912
185	0xbb0db965	-0.0021625396
186	0x3b80780e	0.0039205616
187	0x3c60ea28	0.013727702
188	0xbc901aad	-0.017590845
189	0x3c2044fc	0.009782072
190	0x3b04d587	0.0020268874
191	0xbc382f70	-0.011241779
192	0x3d67b995	0.05657347
193	0x3c9e988f	0.019359855
194	0x3cc33abd	0.02383172
195	0xba92ad15	-0.0011190498
196	0x3c0e0fbc	0.008670744
197	0x3c80c880	0.015720606
198	0x3ce7d82e	0.028301325
199	0x3d17a6ba	0.037024237
200	0x3c43bb36	0.01194649
201	0x3c75cc78	0.015002362
202	0x3d00b9c6	0.031427167
203	0x3d1c9a68	0.03823319
204	0xbbf9aaf3	-0.0076192557
205	0x3ce70f4e	0.02820554
206	0x3be2b75d	0.0069188313
207	0x3cb8598c	0.022503637
208	0x3ba4894a	0.005021249
209	0x3c31257a	0.010812158
210	0x3b985ef1	0.00464999
211	0x3cc325b1	0.023821684
212	0x3bde1d8e	0.0067784255
213	0x3c419fc5	0.011817877
214	0x3b4fc0dd	0.0031700649
215	0x3af7da1a	0.0018909604
216	0xbcd70222	-0.026246134
217	0x3c0b4fe2	0.008502932
218	0x3a5459ce	0.000810054
219	0x3cf2b8cb	0.029629132
220	0x3d0ef675	0.03490301
221	0x3d06a243	0.03286959
222	0xbb292b51	-0.0025813172
223	0x3aa7dd7c	0.0012807096
224	0xbb01db93	-0.0019814714
225	0x3c8c5c68	0.017133906
226	0xbd013bd8	-0.031551212
227	0xbca40d5a	-0.020025898
228	0x3c870890	0.016483575
229	0x3d0d28f1	0.034462873
230	0x3a1e9513	0.00060494355
231	0x3cc6b108	0.024254337
232	0xbac7eb1b	-0.0015252562
233	0x3cf02108	0.029312626
234	0xbc317054	-0.010830004
235	0x3d165f8e	0.03671222
236	0x3cd6082c	0.026126944
237	0xbbabcf9a	-0.005243254
238	0x3d48665c	0.048925743
239	0x3d012e2c	0.031538174
240	0x3cc9f478	0.024652705
241	0x3c6ab609	0.014325627
242	0xbd586d8e	-0.052838854
243	0xba14cb8f	-0.00056760845
244	0x3c94a290	0.018143922
245	0x3cf1138b	0.029428264
246	0x3bff306f	0.007787756
247	0xbc1a8b47	-0.00943262
248	0xbc7d3c15	-0.015456219
249	0x3c2587da	0.01010319
250	0x3cdf27b4	0.027240612
251	0xbaa4d406	-0.0012575395
252	0x3a3cf0e0	0.0007207524
253	0x3b5303d1	0.003219832
254	0x3d0c4663	0.034246814
255	0x3cb39aa5	0.021924326

update_node_embedding_layer.0.update_layer.weight f4 [64, 128]
0	0x3cfbc1f4	0.030732132
1	0x3d5476b8	0.05187103
2	0x3a11ec9c	0.00055665686
3	0x3cd4efca	0.025993247
4	0x3d66e8cc	0.056374356
5	0xbc0d0cf0	-0.008609042
6	0x3d18dd3a	0.037320353
7	0xbc55050a	-0.01300169
8	0x3cf1f2ff	0.029534815
9	0x3b14fdf1	0.0022734369
10	0x3d8edf07	0.06976133
11	0xbcd64083	-0.026153808
12	0x3d376d29	0.044781838
13	0x3d3edb11	0.046595637
14	0x3d4e2641	0.05032945
15	0x3d2d8429	0.042362366
16	0xbac0ed2c	-0.001471912
17	0xbc8b87cd	-0.017032528
18	0x3d1bb3d6	0.0380133
19	0xbd08c260	-0.033388495
20	0x3c8457be	0.01615512
21	0xbb7f52bf	-0.0038959233
22	0xbd064c0a	-0.03278736
23	0x3d2a9957	0.041650143
24	0xbda2a9ed	-0.07942567
25	0xbce28b8a	-0.027654428
26	0x3c1fbf5f	0.009750216
27	0x3d4dd50b	0.050252
28	0xbc9b4ba6	-0.01895697
29	0x3d11f4f1	0.035633985
30	0x3d0b2083	0.033966552
31	0xbca67e4b	-0.020323893
32	0xbd538bdc	-0.051647052
33	0x3cb35168	0.021889403
34	0xbd553532	-0.052052684
35	0xbbb4af6b	-0.0055140755
36	0xbd35f509	-0.044423137
37	0x3b8ba0b3	0.0042611
38	0x3d904bb1	0.07045687
39	0x3c8d3812	0.01723865
40	0x3d132218	0.035921186
41	0x3c85d334	0.016336061
42	0x3b29a3bb	0.0025884944
43	0x3cfe5792	0.031047616
44	0x3d0f9896	0.035057627
45	0x3af7d408	0.0018907795
46	0x3c30db74	0.010794509
47	0xbdd9f0dd	-0.10641644
48	0xbc92c770	-0.017917365
49	0xbbc90bbb	-0.0061354316
50	0x3ccb8790	0.024844915
51	0x3c658332	0.01400833
52	0xbd18f614	-0.037344053
53	0x3d24fa2c	0.040277645
54	0x3d1d8be1	0.038463477
55	0x3d4ece70	0.050489843
56	0x3ca70721	0.020389142
57	0xbcaa4042	-0.020782594
58	0x3c97073b	0.018436065
59	0xbd0a6bf7	-0.03379437
60	0x3ceb3555	0.028711954
61	0xbc619351	-0.013768033
62	0x3c11162f	0.008855387
63	0x3c3b5191	0.011433021
64	0x3d5825d6	0.05277046
65	0xbb71c8ef	-0.0036893447
66	0xbd0e51ef	-0.034746107
67	0x3cca03c1	0.024659993
68	0x3bad8272	0.0052950913
69	0x3c440b53	0.0119655905
70	0xbd263773	-0.040580224
71	0x3cb77d76	0.022398692
72	0x3d195961	0.037438754
73	0x3c1a4372	0.009415494
74	0xbd4ef5f1	-0.050527517
75	0x3c60fbc0	0.013731897
76	0x3c15ea02	0.00915003
77	0x3bf5f73e	0.00750628
78	0x3d2e2eae	0.042524986
79	0xb80ec270	-3.4036522e-05
80	0x3bfd04dc	0.0077215265
81	0x3c5d20af	0.013496562
82	0x3d166ae7	0.036723044
83	0x3d0484aa	0.03235308
84	0xbc8b3880	-0.016994715
85	0x3bc1dbe8	0.0059161074
86	0xbaebc055	-0.0017986397
87	0x3bf95440	0.0076089203
88	0x3bd677a6	0.006545025
89	0x3d042deb	0.032270353
90	0x3c177cd1	0.009246067
91	0x3c95134c	0.018197678
92	0x3c992914	0.018696345
93	0x3d144e05	0.036207218
94	0x3c3f1755	0.011663278
95	0xbcb6e161	-0.022324266
96	0xbcc6f164	-0.024285026
97	0x3ceca427	0.028886868
98	0xbd3ba3d4	-0.045810536
99	0xbbf6691b	-0.0075198538
100	0x3c737c42	0.014861168
101	0x3ca276a4	0.019831963
102	0x3c9d37e5	0.019191692
103	0xbbbf45bc	-0.0058371704
104	0x3b9f7038	0.0048656724
105	0x3d2fe40e	0.0429421
106	0xbd5426bd	-0.051794756
107	0x3d05cee9	0.032668028
108	0x3d1dc5df	0.038518783
109	0x3cc7dac8	0.024396315
110	0x3c1800b3	0.00927751
111	0x3c5d9b8f	0.013525858
112	0xbb70c699	-0.0036739467
113	0x3c9c345d	0.019067938
114	0xbbe6666a	-0.0070312517
115	0x3c932e7b	0.0179665
116	0x3c8c8e27	0.017157627
117	0x3cbaf030	0.022819608
118	0x3ca86964	0.020558067
119	0x3d70e9b7	0.058816638
120	0x3d01a83d	0.031654585
121	0x3ce19b5e	0.027539905
122	0xbcfac413	-0.030611074
123	0x3c8a752a	0.016901571
124	0x3ccd3cff	0.0250535
125	0x3cbadef4	0.02281139
126	0x3cc2a739	0.023761379
127	0x3b9402d3	0.0045169382
128	0x3c984599	0.018587874
129	0x3d1ed577	0.038777795
130	0x3b558bd6	0.003258457
131	0xbc84c171	-0.016205521
132	0x3c34da00	0.011038303
133	0x3d665ebd	0.056242693
134	0x3ce8edad	0.028433645
135	0xbaa39e49	-0.0012483086
136	0x3da61002	0.08108522
137	0x3d65f31f	0.05614006
138	0x3d341f63	0.043975245
139	0xbce889de	-0.028386053
140	0x3d1cca70	0.038278997
141	0x3b4acf83	0.003094644
142	0xbc893bc8	-0.016752139
143	0xbc62fbbd	-0.013853964
144	0xbc5d6dc2	-0.013514938
145	0xbd0ae6c2	-0.033911474
146	0x3c3cf0dc	0.011532035
147	0xbc8faf8b	-0.01753976
148	0x3bd8c59f	0.006615355
149	0xbc369071	-0.011142836
150	0xbc3791a1	-0.011204154
151	0xbcc86cf6	-0.02446602
152	0xbd9880fd	-0.074464776
153	0xbca817eb	-0.020519217
154	0x3c8f0aff	0.017461298
155	0x3d63d740	0.0556252
156	0xbcf7872e	-0.030215826
157	0xbc4e7fe0	-0.01260373
158	0x3ccdeead	0.025138224
159	0xbc646f5f	-0.013942569
160	0xbcbad980	-0.02280879
161	0x3c9199c1	0.01777351
162	0xbd37ea35	-0.04490109
163	0xbd441321	-0.047869805
164	0xbcaa5ca9	-0.020796137
165	0x3c67f86f	0.014158352
166	0x3db21322	0.086950555
167	0x3c48495a	0.01222452
168	0x3c3bde29	0.011466541
169	0x3d3a4cde	0.045483463
170	0xbc43b922	-0.011945995
171	0x3aea0f62	0.0017857368
172	0x3b0ae727	0.0021194906
173	0x3c64e1e8	0.013969876
174	0x3cf012fe	0.029305931
175	0xbd6fc1b7	-0.05853435
176	0xbc734365	-0.014847611
177	0xbc8701a2	-0.01648027
178	0x3d407cb6	0.046993934
179	0xbb8c8389	-0.004288141
180	0xbc90c278	-0.017670855
181	0x3bd0031c	0.006348027
182	0xbd298008	-0.041381866
183	0x3c4ec498	0.012620114
184	0xbc5b2312	-0.013375061
185	0xbd033051	-0.0320285
186	0x3c900bd4	0.017583765
187	0xbd1da5db	-0.03848825
188	0x3be18e6b	0.0068834326
189	0xbb992528	-0.004673619
190	0xbbd4a4c4	-0.006489368
191	0x3c889ff2	0.01667783
192	0x3d107fe5	0.03527822
193	0x3bfc25fc	0.007694958
194	0xbcacc16e	-0.021088328
195	0x3ca5d2a6	0.020242047
196	0x3ce1ba76	0.027554732
197	0x3ce76883	0.028248077
198	0xbd03e278	-0.0321984
199	0x3cf74254	0.030182995
200	0x3c62eb70	0.013850078
201	0x3b50fde0	0.0031889603
202	0xbd353c23	-0.044246804
203	0x3c4d7682	0.0125404615
204	0x3c0d5567	0.008626319
205	0x3cddf932	0.027096365
206	0x3cc3e2e5	0.023911903
207	0xbcf50a4e	-0.02991214
208	0xba3f133c	-0.0007288938
209	0x3ca47918	0.020077273
210	0x3d101a88	0.035181552
211	0x3d55ecf7	0.05222794
212	0x3c84ba59	0.016202139
213	0x3c64091a	0.013918186
214	0x3d4dacbe	0.050213568
215	0x3c76932e	0.015049739
216	0x3c9dac91	0.019247325
217	0x3ac6327e	0.0015121249
218	0xbb8604f1	-0.0040899445
219	0x3d0607f9	0.032722447
220	0x3ce4e79b	0.02794247
221	0x3ac00db1	0.0014652518
222	0x3c5c5772	0.013448583
223	0xbd6503c2	-0.055911787
224	0xbd1c4b76	-0.038157903
225	0x3ceb4399	0.028718757
226	0xbd31384a	-0.043266572
227	0xbcc109fe	-0.023564335
228	0x3cad9c0f	0.021192579
229	0x3c185d7e	0.009299634
230	0x3d130611	0.035894457
231	0xbcc017fa	-0.023448933
232	0x3cd2d6f0	0.025737256
233	0x3cc721ca	0.024308104
234	0xbd29372a	-0.041312374
235	0x3d0168ee	0.03159421
236	0x3d54dcef	0.05196851
237	0x3c608a9d	0.013704923
238	0x3cd54f54	0.026038803
239	0x3c72fdc2	0.014831008
240	0x3cebde33	0.028792476
241	0x3d5148e8	0.05109492
242	0xbc98dcf5	-0.018660048
243	0x3cb5bd68	0.022185043
244	0x3cbe402a	0.023223955
245	0x3d009ac5	0.0313976
246	0x3d18586c	0.0371937
247	0x3d52cd19	0.051465128
248	0x3d04cfe6	0.03242483
249	0xbd364c09	-0.044506107
250	0xbd12710d	-0.035752345
251	0x3cd23698	0.025660798
252	0x3cb925f5	0.022601107
253	0x3ca04931	0.01956615
254	0x3c306711	0.01076676
255	0xbc26bf2f	-0.010177418

update_node_embedding_layer.1.message_layer.weight f4 [64, 128]
0	0xb9d03ad4	-0.00039716682
1	0xbcd06dd3	-0.025442993
2	0xbb35d63d	-0.0027746104
3	0xbcb98d35	-0.02265034
4	0xbcf7dd42	-0.030256871
5	0xbcba2d76	-0.022726756
6	0xbc9f4df8	-0.019446358
7	0xbb4bcd2a	-0.003109763
8	0x3ca59404	0.02021218
9	0x3bd146ed	0.006386629
10	0x3bdaefba	0.0066814097
11	0x3beb8321	0.0071872626
12	0x3b829687	0.0039852294
13	0xbc7ee981	-0.015558601
14	0xbb4a73a5	-0.0030891683
15	0xb86dc6d4	-5.6690376e-05
16	0xbc47a26e	-0.012184722
17	0x3cdd9760	0.02704972
18	0xbb84ac1f	-0.0040488387
19	0x3cfb41de	0.030671056
20	0x3b1e80da	0.0024185688
21	0x39e817e8	0.000442683
22	0xbc1b8096	-0.0094911065
23	0xbcde81e8	-0.027161554
24	0xbd27c010	-0.04095465
25	0x3c8d371f	0.017238198
26	0x3c16cddf	0.009204357
27	0xbbd66eef	-0.006543986
28	0x3c3f69c3	0.01168293
29	0xbc86aef5	-0.016440848
30	0x3c183a1d	0.009291199
31	0x3c60bb5b	0.013716544
32	0xbc962085	-0.018326053
33	0xbd017838	-0.03160879
34	0x3c7d9007	0.015476233
35	0xbcb56c03	-0.02214623
36	0xbd6de8d2	-0.058083363
37	0x3cad61ab	0.021164736
38	0xbc9ada47	-0.01890291
39	0x3ac478af	0.001498958
40	0xbb8bf871	-0.00427156
41	0x3b6ca72f	0.0036110391
42	0xbc36892f	-0.011141106
43	0x3c501ce9	0.012702205
44	0xbc0297b8	-0.007970743
45	0xbca860d4	-0.020553984
46	0xbcd8df78	-0.026473746
47	0xbcc44d97	-0.023962779
48	0xbc39d86b	-0.011343102
49	0xbc53d31d	-0.012928751
50	0x3c904057	0.017608805
51	0xbcb2f6a0	-0.021846116
52	0x3bb76caf	0.005597673
53	0xbce63d92	-0.02810553
54	0x3babef43	0.005247028
55	0xbccfad16	-0.025351088
56	0x3c6d898f	0.014498129
57	0xbd3937b9	-0.045219157
58	0x3cb383a5	0.021913359
59	0xbd2d35ee	-0.04228776
60	0x3b878d79	0.004136738
61	0xbd19acdf	-0.03751838
62	0x3c41d8fd	0.011831519
63	0xbca6b399	-0.02034931
64	0xbbca6f66	-0.0061778305
65	0xbbabfe3a	-0.005248812
66	0xba2641d1	-0.0006342205
67	0x3c9acd0b	0.0188966
68	0x3aae2ebb	0.0013289073
69	0x3c1be24d	0.0095144035
70	0x3b9f1228	0.0048544593
71	0xbab6aed0	-0.0013937596
72	0x3c899d24	0.016798563
73	0x3c5fb4bb	0.013653929
74	0x3c08c3d6	0.008347472
75	0xbc50dab8	-0.012747459
76	0x3c51759a	0.012784386
77	0x3c51820f	0.012787356
78	0x3b1f29a2	0.002428629
79	0xbc9de6dd	-0.019275123
80	0x3b998b65	0.0046858066
81	0x3c727b83	0.014799955
82	0x3c60d288	0.01372207
83	0x3baa3f71	0.005195551
84	0x3c9548fc	0.018223278
85	0x3c0c4e7b	0.008563633
86	0xbcbf0f35	-0.023322681
87	0x3c6fd9a4	0.014639292
88	0xbbad4392	-0.005287596
89	0x3b3d5ede	0.0028895657
90	0xbc134994	-0.00898971
91	0x3a256772	0.0006309665
92	0xbbd38619	-0.0064551947
93	0xbc0d1338	-0.008610539
94	0xba40e041	-0.0007357635
95	0x3c88eddc	0.016714983
96	0xbb867250	-0.0041029826
97	0xbb1c47b1	-0.0023846442
98	0x3dba9b4a	0.0911165
99	0xbc3b89c9	-0.011446425
100	0x3c97f991	0.01855162
101	0xbba54ad8	-0.0050443225
102	0xbcaa22f1	-0.020768614
103	0x3b8d60cf	0.004314519
104	0xbc5ec7e0	-0.013597459
105	0x3c71563b	0.014730032
106	0xbc372647	-0.01117856
107	0xbc08f45a	-0.008359039
108	0x3b3a2055	0.002840062
109	0x3b4dba46	0.0031391545
110	0xbba44a95	-0.0050137737
111	0x3b7eef6c	0.003890003
112	0x3cf521d8	0.029923365
113	0x3c4e4e63	0.012591931
114	0x3d6ab68f	0.057303008
115	0xbaa25511	-0.0012384971
116	0x3ab80281	0.0014038832
117	0x3bdf4c4b	0.0068145148
118	0xbb985b13	-0.004649529
119	0xbc0a688d	-0.008447778
120	0xbc019091	-0.0079080025
121	0xbbae7cfc	-0.005324958
122	0xbba64633	-0.0050742864
123	0x3c86a517	0.016436143
124	0xbaeca8e2	-0.0018055702
125	0xbc4b5f9c	-0.012412932
126	0x3bc822a6	0.006107646
127	0x3c0c81ce	0.00857587
128	0x3c564c2e	0.013079686
129	0xbc3070c3	-0.010769072
130	0x3ace0f99	0.0015721201
131	0xbb7b9863	-0.003839039
132	0xbb743252	-0.0037261439
133	0xbd4e0da1	-0.050305966
134	0xbb48fc78	-0.0030668061
135	0x3aa68f3b	0.0012707481
136	0xbc68aea6	-0.014201796
137	0x3ad91d9c	0.001656461
138	0x3c4affe6	0.0123901125
139	0xbca552d4	-0.020181097
140	0xbc8a473f	-0.016879676
141	0x3bde688a	0.0067873644
142	0x3ca92d91	0.02065161
143	0xb9ac9d70	-0.00032923697
144	0xbbe99a79	-0.0071290103
145	0x3ceeb7ba	0.029140342
146	0x3a82a662	0.0009967799
147	0xbd1c39a7	-0.03814092
148	0xbc7fa083	-0.015602234
149	0xbc807a21	-0.015683236
150	0xbc41d25e	-0.011829941
151	0xbc69a248	-0.014259882
152	0xbc11196a	-0.008856157
153	0x3a6e437d	0.0009089036
154	0xbb5af298	-0.0033408757
155	0x3c25b00d	0.010112775
156	0xbbfbdb58	-0.00768606
157	0xbc16858e	-0.009187115
158	0x3c3302fb	0.010926004
159	0x3c7eae33	0.015544462
160	0x3d52b80b	0.05144505
161	0xbba73e33	-0.0051038503
162	0x3cba3af1	0.022733184
163	0xbcb1f547	-0.021723403
164	0xbd4a3a84	-0.04937221
165	0x3b92694d	0.0044681192
166	0x3c28018a	0.010254273
167	0x3bbe343e	0.0058045676
168	0xbc7a9c6f	-0.015296086
169	0xbcde5ab3	-0.027142858
170	0x3c65c08e	0.014022959
171	0xbab4b57f	-0.0013787
172	0xbc66bb78	-0.014082782
173	0xbd010892	-0.031502314
174	0xbc5681b9	-0.013092452
175	0xbd15bb99	-0.03655586
176	0xbc4080c0	-0.011749446
177	0xbc840a5e	-0.016118225
178	0x3be1b0f9	0.006887552
179	0xbb3266a9	-0.0027221835
180	0xbd31feb8	-0.04345581
181	0x39adc426	0.00033143273
182	0x3c2e7eb0	0.010650322
183	0x3b4b2494	0.0030997144
184	0x3b634f4b	0.0034684713
185	0xbc2eb8a4	-0.010664139
186	0xba02ec5b	-0.0004994326
187	0xbc6a96dd	-0.014318195
188	0x3c287d3e	0.010283766
189	0x3cd65724	0.026164599
190	0xbbe5620b	-0.007000213
191	0xbb844449	-0.0040364605
192	0x3db50381	0.08838559
193	0x3bbce728	0.0057648607
194	0x3d3c7e01	0.046018604
195	0xbbae63a1	-0.0053219353
196	0xbcacb0b7	-0.021080358
197	0x3c756cdf	0.01497957
198	0x3d628bee	0.05530923
199	0x3cf88c51	0.030340346
200	0x3943ffd0	0.00018691947
201	0x3d048d77	0.032361474
202	0x3d15157f	0.036397453
203	0x3c716f68	0.014736034
204	0xbbdae1c4	-0.0066797454
205	0x3cf383d8	0.029725954
206	0x3b8c2be8	0.004277695
207	0x3cffaf6e	0.031211581
208	0x3bcda110	0.0062753037
209	0xbc0e541f	-0.008687048
210	0xbd025a9c	-0.031824693
211	0x3d3de611	0.046361987
212	0xbc85fc9d	-0.016355807
213	0x3c9800bc	0.018555038
214	0x3b8170fa	0.0039502354
215	0x3d264278	0.040590733
216	0xbb80da0d	-0.0039322437
217	0xbb69f5e5	-0.0035699543
218	0x3ce2d1b7	0.02768789
219	0x3cbf48e4	0.023350187
220	0x3cae29b1	0.021260114
221	0x3ce51b64	0.027967162
222	0x3b02af05	0.0019940746
223	0xbc77a6c8	-0.015115447
224	0xbb205c51	-0.0024469087
225	0x3cd8954e	0.026438382
226	0x3cd46c11	0.025930436
227	0xbd221918	-0.039574713
228	0xbc21ab3b	-0.009867485
229	0x3d22aa7f	0.03971338
230	0xba1f7130	-0.0006082235
231	0x3d5438ed	0.0518121
232	0xb9298edd	-0.00016170317
233	0x3d68bcd9	0.056820724
234	0xbd015680	-0.031576633
235	0x3cee6a53	0.029103434
236	0x3d0920a0	0.03347838
237	0xbbe66002	-0.007030488
238	0x3d27f692	0.041006632
239	0x3cb9faeb	0.022702655
240	0x3d545d07	0.05184653
241	0xbc838fee	-0.016059842
242	0x3d1b9450	0.03798324
243	0xbc70a173	-0.01468693
244	0xbc3103d9	-0.01080414
245	0x3cef9be3	0.029249137
246	0x3d682019	0.056671236
247	0xbbdab333	-0.0066741942
248	0xbd41e7f0	-0.047340333
249	0xbc6e513d	-0.014545736
250	0x3d1569aa	0.036477722
251	0xbb3ed5b0	-0.0029119067
252	0x3cad28f3	0.02113769
253	0xbbd1844a	-0.006393944
254	0x3d087453	0.03331406
255	0x3bf75de0	0.0075490326

update_node_embedding_layer.1.update_layer.weight f4 [64, 128]
0	0xb93c3e69	-0.00017952327
1	0xba12c647	-0.00055990036
2	0xba8a19eb	-0.0010536289
3	0xbc264657	-0.010148606
4	0xbbc5bc9a	-0.006034446
5	0xbc8ab3b4	-0.016931392
6	0xbb4d395d	-0.0031314709
7	0x3c4836fb	0.01222014
8	0x3a909dcc	0.0011033355
9	0x3b153647	0.0022767948
10	0x3c414506	0.011796242
11	0x3b3a76a5	0.0028452065
12	0xbbc232b8	-0.0059264563
13	0xbc9194ed	-0.017771209
14	0xbd42ed7c	-0.047589764
15	0xbbf1907b	-0.0073719597
16	0xbbdffba4	-0.006835418
17	0xbbaf16e4	-0.005343305
18	0xbafe74ed	-0.0019413509
19	0x3bea7f4e	0.007156289
20	0xbc53237f	-0.012886881
21	0x3c2ebd0d	0.01066519
22	0xbc715f65	-0.0147322165
23	0x3b20dff7	0.0024547556
24	0x3c1a38bb	0.00941294
25	0xbba1fa1d	-0.004943146
26	0x3bea494e	0.007149852
27	0xbba6d074	-0.0050907675
28	0xbb4574c4	-0.0030129412
29	0xb99c19ad	-0.0002977377
30	0x3bbc2655	0.005741874
31	0xbbb00acf	-0.0053723822
32	0xbc1bfe92	-0.0095211435
33	0x3c035e4b	0.008018087
34	0xbc0de001	-0.008659364
35	0xbadbcf05	-0.0016770071
36	0x3c407dc9	0.0117487395
37	0xbc3ff8e3	-0.011717054
38	0x3b129e21	0.0022372084
39	0xbc9f2aed	-0.019429648
40	0xba777a14	-0.00094404933
41	0xbb922cc3	-0.0044609024
42	0xbce0ae7c	-0.02742695
43	0xbbedb7db	-0.0072545833
44	0xbc101c38	-0.00879579
45	0xbbea642f	-0.007153056
46	0x3c5a6618	0.013330005
47	0xbc23cd91	-0.009997741
48	0xbcd0a0ac	-0.02546724
49	0x3abc855c	0.0014383006
50	0x3ba3ae5b	0.00499515
51	0xbbb3db98	-0.005488824
52	0xbc47cd66	-0.012194967
53	0x3acb58b2	0.0015514104
54	0xbc426865	-0.01186571
55	0x3c2311c8	0.00995297
56	0x3b87326d	0.0041258843
57	0xbc5e9b01	-0.0135867605
58	0x3a6033bb	0.00085526303
59	0xbc32d685	-0.010915403
60	0x3c41c68e	0.011827124
61	0x3b462071	0.003023174
62	0xbc5246db	-0.012834276
63	0xbac6c3d1	-0.0015164559
64	0x3b43df26	0.0029887646
65	0xbc51a802	-0.012796404
66	0x3c7680e9	0.015045383
67	0xbc2b6b6d	-0.010462624
68	0x3adb1f17	0.001671764
69	0xbc471bc5	-0.012152617
70	0x3a108fa8	0.00055145705
71	0xbbfa32b1	-0.0076354374
72	0x3ab36f87	0.0013689854
73	0xbc088800	-0.008333206
74	0xbbb854b4	-0.005625332
75	0xbc1f11ab	-0.009708802
76	0x3aa67714	0.0012700283
77	0x3c3d56c6	0.011556333
78	0xbafd6f74	-0.0019335584
79	0x3ba24639	0.004952219
80	0x3bc16388	0.0059017576
81	0xbc49bc0e	-0.012312902
82	0xbc1e883d	-0.009676036
83	0x3c3d70fb	0.011562581
84	0xbc88e12c	-0.016708933
85	0x3c811ee0	0.015761793
86	0xbc4e40ca	-0.012588689
87	0xbaeab50e	-0.0017906742
88	0x3c5a8877	0.0133382
89	0xbbeba53c	-0.0071913283
90	0x3b4ca585	0.0031226587
91	0xbbc88c05	-0.0061202073
92	0xbc13a7da	-0.009012187
93	0xbb59b55c	-0.003321967
94	0xbb94400b	-0.004524236
95	0xbbfc4545	-0.0076986873
96	0x3af385f8	0.0018579355
97	0xbb145c89	-0.0022638163
98	0xbc926656	-0.017871063
99	0x3aaeca78	0.0013335487
100	0x3cbf480b	0.023349782
101	0x3a15d485	0.0005715567
102	0xbba9bc37	-0.0051799077
103	0xbb7728b1	-0.0037713463
104	0x3b670aa1	0.0035254138
105	0x3b4f5c34	0.003164065
106	0xbc340603	-0.010987761
107	0xbbbd4b60	-0.0057768077
108	0xbc2f5a45	-0.010702674
109	0x3c3292b2	0.010899233
110	0xbba32989	-0.0049793166
111	0xbbd810b7	-0.0065937894
112	0x3ac0484f	0.0014669987
113	0xbcddba74	-0.027066447
114	0xbbc0df08	-0.0058859624
115	0xbc617045	-0.013759677
116	0xbc2945d6	-0.010331592
117	0x3c6757ff	0.014120101
118	0x3c0b6ba1	0.008509547
119	0x3aac307f	0.0013137012
120	0x3c1553cd	0.009114218
121	0x3ca2c4d8	0.019869253
122	0xbc8205ff	-0.015872
123	0x3b95cd86	0.0045716194
124	0xbb77538c	-0.0037739007
125	0xbbcf599e	-0.006327822
126	0x3b849d47	0.0040470692
127	0xbaf5e677	-0.00187607
128	0xbd00d891	-0.031456534
129	0xbcdfa519	-0.027300404
130	0xbd4020f2	-0.04690642
131	0x3ce20088	0.027588144
132	0x3d139916	0.036034666
133	0x3d6f578a	0.058433093
134	0x3c455687	0.0120445555
135	0xbd7468cd	-0.05967026
136	0xbd02b75a	-0.03191314
137	0x3d5db7cf	0.05413037
138	0xbd3c1a66	-0.045923613
139	0x3acdb817	0.0015695122
140	0xbd0964bc	-0.033543333
141	0x3bedc6be	0.007256358
142	0xba85ba38	-0.0010202592
143	0xbd18be72	-0.037290998
144	0xbc2add76	-0.010428777
145	0xbcecfdd3	-0.028929627
146	0xbaaf58e0	-0.0013377927
147	0xbc3c0764	-0.011476371
148	0xbd0d8ac9	-0.034556184
149	0xbd595c2f	-0.05306643
150	0x3ccc1f10	0.024917156
151	0x3c737c6b	0.0148612065
152	0xbd903dca	-0.07043035
153	0xbb8b712c	-0.0042554345
154	0xbb5becc1	-0.0033557864
155	0x3b4b06d7	0.0030979419
156	0xbd25a411	-0.04043967
157	0x3ce119ef	0.027478186
158	0x3d78c1af	0.060731586
159	0xbd373e29	-0.044737015
160	0xbdf2e8eb	-0.11860832
161	0x3cc60864	0.024173923
162	0xbd30271d	-0.04300605
163	0x3b8d2e00	0.004308462
164	0x3d22f605	0.039785404
165	0xbcd8fa4d	-0.02648654
166	0x3da719c0	0.08159208
167	0xbcfbf60b	-0.03075697
168	0x3c741d55	0.014899571
169	0xbcfa2e37	-0.030539615
170	0xbd1065f5	-0.035253484
171	0x3d036908	0.032082587
172	0xbd3795c7	-0.044820573
173	0x3cbea1f7	0.02327059
174	0x3cd8fdfe	0.0264883
175	0x3cddf65f	0.027095018
176	0x3d2d14cd	0.042256165
177	0x3cca9573	0.024729466
178	0xbd4145f1	-0.047185842
179	0x3d105b79	0.035243485
180	0x3d85b6d0	0.06529009
181	0x3c8c0c1d	0.01709562
182	0xbc835614	-0.016032256
183	0x3cc7cfbc	0.024391048
184	0xbd17751f	-0.03697693
185	0x3db7cb99	0.0897438
186	0xbd3c2f80	-0.045943737
187	0x3d6dce3d	0.058058012
188	0xbb0173b7	-0.001975281
189	0xbd40e0b3	-0.04708929
190	0xbd6358b4	-0.055504516
191	0xbc0aff52	-0.008483725
192	0xbc249394	-0.010044951
193	0x3c81fa25	0.015866349
194	0x3c00f556	0.007870993
195	0x3cb8ae34	0.022544004
196	0x3d24cda3	0.040235173
197	0x3bea4e45	0.0071504437
198	0x3acd8ee6	0.0015682846
199	0x3c52c22a	0.012863675
200	0x3c83964c	0.016062878
201	0x3d38d70a	0.045126952
202	0x3d0c6f5a	0.03428588
203	0x3caacde2	0.020850126
204	0x3d26f4af	0.040760692
205	0xbd412bee	-0.047161035
206	0xbc6621bc	-0.014046129
207	0x3d7d0cc2	0.061779745
208	0x3ca6817e	0.020325419
209	0x3c0e91c7	0.008701748
210	0x3c93e52d	0.018053615
211	0x3d984a5e	0.074360594
212	0x3a994084	0.0011692201
213	0x3d01d638	0.031698436
214	0x3c8bdb02	0.017072205
215	0xbc3c3a64	-0.011488531
216	0x3c774830	0.015092894
217	0x3ac29014	0.0014843964
218	0x3cf3569d	0.029704386
219	0x3d4c8c7f	0.049938675
220	0xbcab609d	-0.020920092
221	0xb9a29369	-0.00031008877
222	0xbc5d246e	-0.013497455
223	0x3d23b1bf	0.039964434
224	0x3c8bb699	0.017054843
225	0xb94c1fb6	-0.0001946677
226	0xbbd793d1	-0.0065789004
227	0xbd2a2771	-0.04154152
228	0x3d01d249	0.031694684
229	0x3d40babc	0.047053084
230	0x3cfb5ccd	0.0306839
231	0x3c3b734f	0.011441066
232	0x3d39c014	0.045349196
233	0x3cce8598	0.025210187
234	0xb9a98cfa	-0.00032339228
235	0x3c9309ea	0.017949063
236	0x3c8c191a	0.017101813
237	0x3d529fc9	0.051421914
238	0x3a89f193	0.0010524265
239	0x3d0abb66	0.033870123
240	0x3d2d3ee7	0.042296316
241	0xbb7ed8d3	-0.0038886562
242	0x3c8a593d	0.016888255
243	0x3c0ddeb6	0.008659055
244	0x3c71d1c0	0.014759481
245	0x3cda26c3	0.026629811
246	0x3b255c9d	0.0025232204
247	0x3c934902	0.017979149
248	0x3caa3f9c	0.020782284
249	0x3ceef0c2	0.029167537
250	0x3c963280	0.018334627
251	0x3c21a26a	0.009865383
252	0x3b9853f7	0.0046486813
253	0x3c77e9d4	0.015131433
254	0x3c5a8403	0.013337138
255	0x3c046dee	0.00808285
