rlsolver/methods/eco_s2v/pretrained_agent/s2v/network_best_BA_20spin.pth (torch_old, 233789 bytes, 11 tensors)

node_init_embedding_layer.0.weight f4 [64, 1]
000000 74 aa 8d 3d ac 53 af 3d 1f 01 ad 3d 76 a5 ed bb
       0.06917277 0.08560881 0.084474795 -0.0072523905
000010 87 c8 93 3d 28 2b b4 bb 49 90 68 ba d8 78 82 3d
       0.07215982 -0.0054983087 -0.0008871598 0.06370705
000020 8c 6c 31 bc 6a de 9c 3d a3 9e a9 3d 36 a6 10 bc
       -0.010829102 0.076596096 0.08282211 -0.00882869
000030 eb 84 95 3d fb fa 60 bc 18 f1 a2 3d 3c 6a 20 bb
       0.07300743 -0.013731713 0.07956141 -0.0024477383
000040 ea a9 c9 b9 63 e1 07 bb 58 ef 81 3d 9e 92 96 3d
       -0.00038464303 -0.0020733706 0.06344479 0.07352184
000050 42 2e 9e b8 0b 50 b5 3d 0d a8 ac 3d 26 64 9a bb
       -7.542643e-05 0.088531576 0.08430491 -0.0047116457
000060 f7 fe a9 3d a0 d9 a6 3d 28 5b a8 3d bb eb 0b bb
       0.08300584 0.081469774 0.08220512 -0.0021350223
000070 b0 d9 8e 3d 99 0d da ba 7d d0 9a 3d c5 77 dd bc
       0.06975114 -0.0016636132 0.07559297 -0.02703465
000080 53 bf 88 bc a7 53 8d 3d 8a 05 9a 3d 1b 32 10 bc
       -0.016692793 0.06900721 0.07520588 -0.008801009
000090 fd a2 9b 3d 00 90 a2 3d e4 eb 16 bc 76 3f b3 3d
       0.07599447 0.07937622 -0.009211514 0.087523386
0000a0 47 34 9d 3d 9b 9e 8f 3d 45 fb 01 bc 74 e3 92 3d
       0.07675987 0.070126735 -0.0079334425 0.071722895
0000b0 c0 dd 7b bc 59 1b 9a 3d 4c 96 94 3d d4 f6 a5 3d
       -0.015372694 0.075247474 0.07255229 0.08103719
0000c0 d9 85 8f 3d bb 80 a1 3d 39 d6 92 ba 12 34 a1 3d
       0.07007951 0.078858815 -0.0011202759 0.0787126
0000d0 a5 c1 c2 3d 0c 39 8e 3d 0e 05 b7 3d db ad 37 ba
       0.09509591 0.069444746 0.08936511 -0.00070068025
0000e0 0f 83 12 bc 76 a3 d0 ba 43 2d 09 b9 c3 10 9b 3d
       -0.00894238 -0.0015917856 -0.000130822 0.075715564
0000f0 29 1a 14 ba 46 84 9f 3d a8 52 c7 ba 17 b5 41 bc
       -0.000564965 0.07788901 -0.0015207129 -0.01182296

edge_embedding_layer.edge_embedding_NN.weight f4 [63, 2]
000000 13 09 2d bd 67 31 2f bd 19 0b 32 bd d8 bc c1 bc
       -0.042244982 -0.042771723 -0.043467615 -0.023649618
000010 37 d0 47 bd bb 49 85 bc 0c 58 42 bd 59 67 df 3c
       -0.048782554 -0.016270509 -0.04744725 0.02727096
000020 aa 8b ad 3c c4 14 76 3d 2b 96 4f 3d 5a 7c 83 bd
       0.021184761 0.060078397 0.05068032 -0.064202026
000030 b2 74 1b 3d ec 04 4f bd d2 f9 4c bd 5f 7c 16 3d
       0.037953086 -0.050541803 -0.050042935 0.036739703
000040 a4 42 42 bd eb 3c 13 3d 38 39 5d 3d f4 e8 89 bd
       -0.047426835 0.035946768 0.054009646 -0.067338854
000050 aa c5 37 bd e5 6d 87 bc 70 2b 8a bc 2b 4b 77 3d
       -0.04486624 -0.016531894 -0.016866416 0.06037442
000060 cc 6b 4c 3d 43 fd 83 bd cb 80 4a bc 99 f0 83 3d
       0.04990749 -0.0644479 -0.012359808 0.06442375
000070 c4 92 3c bd 34 a6 20 3d 6c 43 77 bd f2 5a 6d 3d
       -0.046038404 0.039221004 -0.060367033 0.05794806
000080 e0 da 2c 3d a1 61 68 bd 20 79 c9 bc ed 05 de 3c
       0.042200923 -0.05673373 -0.02459389 0.027102435
000090 e6 8d 29 bd 38 44 99 bc 37 50 08 3d 0f 4e 37 bd
       -0.04139509 -0.018709287 0.033279624 -0.044752177
0000a0 44 24 1a 3d 5c b6 4b bd 1b c7 2e bd 9d 05 b0 3c
       0.03763224 -0.04973446 -0.04267035 0.021487052
0000b0 c6 ea 49 bd 99 2b fb 3c f1 26 2b 3d 09 03 60 bd
       -0.049296163 0.030660437 0.041785184 -0.054690395
0000c0 5e 17 40 bd 32 77 fb 3c 4e 22 4e 3d 26 53 84 bd
       -0.046897285 0.030696485 0.050325684 -0.06461172
0000d0 ae 26 28 bd 2c bf 6e bc 42 39 13 bd d3 62 90 3b
       -0.041052513 -0.014571946 -0.035943277 0.004406312
0000e0 17 e5 1b bd 21 ec a4 3c e4 e9 13 3d 7f ce 4f bd
       -0.038060274 0.020132126 0.036111727 -0.05073404
0000f0 24 9f 5b 3d 5c c8 8a bd af b8 39 3d dc a1 6f bd
       0.053618565 -0.06776497 0.045342144 -0.05850397
000100 b7 f9 3b bd 65 76 1d 3d 50 12 34 bd a9 42 9c bc
       -0.045892444 0.038442988 -0.043962777 -0.019074755
000110 3b ba 3a bd 10 2f 41 bd d1 b4 30 3d 32 b1 72 bd
       -0.04558776 -0.047164023 0.04314119 -0.059251018
000120 02 e8 19 3d 8f 6c 5d bd 57 7f 34 3d c8 a7 68 bd
       0.037574776 -0.054058608 0.044066753 -0.056800634
000130 a8 5d 46 bd 6e 20 c0 3c b1 00 3e 3d 35 77 7b bd
       -0.04842916 0.023452964 0.046387378 -0.06139298
000140 1d 29 49 bd d7 8f 1a 3d 51 73 34 3d eb 68 6d bd
       -0.049111474 0.037734833 0.044055287 -0.057961386
000150 67 80 2a bd 5e 87 ea 3a 2a 1a 5d bd a1 5f 12 3d
       -0.04162636 0.0017893126 -0.05398003 0.03573573
000160 42 44 41 bd fa 60 39 3d 22 d7 9f 3c 9d ca 5a 3d
       -0.047184236 0.0452585 0.019511763 0.053415883
000170 26 ba 22 bd 0c 95 74 3c 53 87 25 bd 3a 58 9c 3c
       -0.039728306 0.014928114 -0.04041226 0.019085038
000180 2c fd 42 bd 4f 62 98 bc 8e 4e 39 bd 3b 84 c7 3c
       -0.047604725 -0.018601565 -0.04524093 0.024355045
000190 af 72 59 3d 87 10 8c bd fd 69 3e 3d 2c cb 78 bd
       0.053087886 -0.0683909 0.046487797 -0.060740635
0001a0 f1 64 30 3d 02 1c 6c bd e0 af 2a 3d 1a e2 66 bd
       0.043065015 -0.057643898 0.041671634 -0.05636797
0001b0 b4 6d 46 bd 4a ff 1e 3d 77 96 1c 3d 95 12 54 bd
       -0.048444465 0.03881768 0.038229432 -0.051775534
0001c0 0e f2 44 bd ec a7 4c 3d 53 5d 80 bd f1 9f 82 3d
       -0.048082404 0.04996483 -0.062678 0.06378163
0001d0 ba 4b 18 3d 63 5c 4f bd 58 00 31 3d bf 7b 67 bd
       0.037181593 -0.050625216 0.04321322 -0.056514498
0001e0 33 f5 53 bd 36 20 13 3d 80 7a 3d 3d 93 a7 7d bd
       -0.051747512 0.03591939 0.046259403 -0.06192739
0001f0 9b c8 1c 3d 9c 4f 54 bd
       0.03827725 -0.051833734

edge_embedding_layer.edge_feature_NN.weight f4 [64, 64]
000000 b3 db a0 3c 14 c7 2b 3c c3 01 bb 3b 18 4c 74 b9
       0.01963601 0.010484476 0.005706997 -0.00023298
000010 26 37 9f bc 63 99 51 3d af a1 7c 3d 7e 64 88 ba
       -0.019435477 0.05117167 0.06167763 -0.0010405926
000020 d1 9c d7 3b 85 f2 5b 3d 17 f9 19 3c b0 cf ed bc
       0.0065799733 0.05369808 0.009397767 -0.029029697
000030 81 0d 3b 3d a6 7e bc bc 85 e6 95 bb 94 cd c2 bc
       0.045667175 -0.02300961 -0.004574599 -0.023779668
000040 1b 81 48 3d c1 c5 05 bc 52 0e 8a bc 59 b6 42 3d
       0.04895125 -0.008164824 -0.016852532 0.04753718
000050 54 17 85 3d 3f de 9d 3b b9 fd c6 bb 2c db 81 3d
       0.0649859 0.0048177536 -0.0060727266 0.06340632
000060 ca a4 4b 3c 5d e4 0b 3d e3 7b c0 3a 9e e3 26 bc
       0.0124294255 0.03415333 0.0014685359 -0.010186104
000070 26 ca c7 b9 a2 88 1d 3d bf 83 47 3d bb 97 69 3d
       -0.0003810685 0.03846038 0.048709627 0.057029467
000080 97 a3 32 ba ae d0 d8 3c c5 cd 45 3c 39 4c 14 3d
       -0.0006814538 0.026466694 0.012072985 0.036205504
000090 f4 1a 52 3d ad 7e 84 3d 00 fe 41 3c 20 42 53 3d
       0.051295236 0.06469474 0.0118403435 0.051576734
0000a0 68 05 b5 3a 88 d5 31 3d a2 98 61 3b b5 ae 12 bc
       0.0013810815 0.04341653 0.0034423252 -0.008952786
0000b0 41 60 c9 bb 6b c8 bf bc 7c dc b6 3c 47 85 17 bb
       -0.0061455076 -0.023410996 0.022321932 -0.002312021
0000c0 7f 8f 22 3c bd 79 9b bb 5e 00 4f 3d e6 77 2d 3d
       0.009921907 -0.004744737 0.05053746 0.042350672
0000d0 66 86 23 3d 2c 60 6d 3d 32 85 23 3b aa 35 86 3d
       0.039923094 0.057953045 0.0024951217 0.06553204
0000e0 29 77 87 bc dc a4 c9 3c e6 08 5c 3d fb 06 43 3d
       -0.016536312 0.024614744 0.053719424 0.04761408
0000f0 fe 75 62 3c 6b 7f 1e 3d d5 96 28 3d aa 24 89 3b
       0.013822077 0.038695734 0.04115947 0.004185279
000100 e4 30 be ba 37 a1 c9 3b 04 5d c1 3b e9 cd b9 ba
       -0.001451042 0.0061532515 0.005900981 -0.0014175746
000110 38 77 8d bc 49 3f 3a 3b 76 1f 9c bb 6d 46 38 3b
       -0.017268762 0.0028419069 -0.0047644926 0.002811815
000120 ad 29 db bb 86 b8 d2 b9 1f fd df bb dc 7c 10 bc
       -0.0066883177 -0.00040191802 -0.0068355943 -0.008818831
000130 ac 40 3f bc d8 16 72 3b 87 e8 22 bc 57 6a e7 bc
       -0.011673134 0.0036939885 -0.009943134 -0.028248949
000140 b6 f7 00 bc ad ad 23 3c 69 ea f4 3a 09 9a a2 ba
       -0.007871559 0.009990138 0.0018685582 -0.0012405525
000150 6d c3 2b bc 2e f1 1f bc 7f cd 33 bb 18 5c c8 bb
       -0.010483605 -0.009762092 -0.0027435718 -0.006114494
000160 d8 47 5d 3c 12 7a 36 38 ad a8 4e 3c 53 04 5f 3c
       0.013505898 4.350587e-05 0.012613458 0.013611871
000170 0e 53 41 bc 56 1c 4b b9 4d df 03 bb e0 d9 09 bc
       -0.011799587 -0.00019370145 -0.0020122111 -0.008413762
000180 31 16 1b bc b3 73 ca ba e3 8c 29 bb ae eb 20 3c
       -0.00946574 -0.0015445858 -0.0025871329 0.009821815
000190 9c fc dd 3b ea 84 8d bb 1c 11 96 bb 25 ce da bb
       0.006774498 -0.004318823 -0.0045796763 -0.0066774064
0001a0 93 2e 0b 3c 5f 44 7c bb 8c 1c 4a ba df 8b d4 3b
       0.008494991 -0.00384929 -0.00077099423 0.0064864005
0001b0 66 9a b4 3a c1 0b cf 3a da a2 fe 3b 14 ff 8b bb
       0.0013778924 0.001579635 0.0077708783 -0.004272351
0001c0 b4 c2 b3 3b 5c 85 9f ba 51 cc ed 3b 00 7a 56 3b
       0.005485857 -0.0012170481 0.0072570224 0.0032726526
0001d0 cc c6 81 bb 0a fc ce bb 57 4b 3a 3c 48 d5 89 3a
       -0.003960466 -0.0063166665 0.0113705015 0.0010515833
0001e0 91 8b a8 3b ef 4e b1 3b 36 d8 3f 3c 0a fa 8d bc
       0.0051435907 0.005411021 0.011709264 -0.017331142
0001f0 63 0b a1 ba 76 5a 31 bb 7e 72 23 bc 80 6d c2 bc
       -0.0012286719 -0.0027061976 -0.0099760275 -0.023733854
000200 b1 d9 34 bd c1 a7 26 bd 86 76 32 bd 96 bd 44 3c
       -0.04415292 -0.040687326 -0.043570064 0.012008091
000210 64 46 ff b8 9d ae 87 3d c2 89 49 3d 55 fb ae 3c
       -0.00012172459 0.06625102 0.04920364 0.021360079
000220 13 a8 4c 3c fe 7d 59 3d 0b 90 13 bc ef 78 91 3c
       0.012491244 0.05309867 -0.0090065105 0.017757861
000230 78 16 a8 3c 0c aa f3 3c 7b 62 8c 3c e1 2e 59 3c
       0.020518526 0.02974417 0.017136803 0.013255806
000240 45 45 cd 3c 78 37 6b bc c7 58 25 bd bc c8 16 3d
       0.025057444 -0.0143564865 -0.040367868 0.03681253
000250 d0 e6 39 3d 9e c0 3a 3b 58 73 55 3c 8d b4 6e 3d
       0.045386136 0.0028496156 0.013027988 0.058277655
000260 48 49 66 3b a6 41 50 3d fc 37 7a bd e1 31 2f bb
       0.0035138894 0.050843857 -0.061088547 -0.002673261
000270 cb ed 87 3b ab 6f 06 3d 88 32 66 3d c4 36 6b 3d
       0.00414822 0.03282134 0.056200534 0.057425275
000280 22 2d 18 3a b7 27 d6 bc f3 6a 6f bd cd a2 0a 3d
       0.0005805065 -0.026141984 -0.058451604 0.033846665
000290 7f 3e 04 3d 81 e6 8b 3d 13 09 2c 3b 4a 87 15 3d
       0.032286163 0.068310745 0.0026250526 0.036505975
0002a0 24 a8 2f 3c 59 c0 5b 3d 3f f3 07 3a 37 44 ad 3b
       0.01072124 0.053650234 0.0005186088 0.005287673
0002b0 4e 3a f3 3c a4 7b 02 3c 7d 51 4d 3b fa e4 87 3c
       0.029690888 0.007964049 0.0031329088 0.016588677
0002c0 b3 2e 15 bd 94 ec cf ba 37 14 ff 3c 19 cf 40 3d
       -0.03642149 -0.0015863352 0.031137569 0.047072504
0002d0 2b d9 3f 3d 52 45 40 3d 41 86 c3 3c 33 d6 2d 3d
       0.046837967 0.04694111 0.023867728 0.042440604
0002e0 b7 20 90 3c f5 a1 78 3b 68 f7 07 3d 8b d1 40 3d
       0.017593725 0.003793833 0.03319493 0.047074836
0002f0 aa 41 13 3d 9e 72 4b 3d d8 e3 2f 3d d3 ef 81 3d
       0.035951294 0.049669854 0.042941898 0.06344571
000300 da 91 11 3c 4c 96 50 bc 9b 63 b6 bb 0d 8b 06 ba
       0.008884871 -0.012731146 -0.005566073 -0.00051324145
000310 05 22 1b bb 48 d4 00 bb 8a eb 7d bc bc 8e 39 3c
       -0.00236714 -0.001965778 -0.015498051 0.011325534
000320 c1 8b d4 3b 34 b1 b6 bc 65 ed 7d 3b 8a e1 29 3b
       0.0064863865 -0.022301294 0.0038746234 0.0025921785
000330 ad 49 67 3b 01 09 7b bc 8f 49 90 bb c4 80 d3 3b
       0.0035291717 -0.015321971 -0.0044033 0.006454559
000340 8e 81 0a 3c e8 8b 13 3c 05 56 c4 b9 9c a6 e4 ba
       0.00845374 0.009005524 -0.00037448123 -0.0017444673
000350 6e 92 80 3b 65 53 95 3b 14 cf b9 bb 06 c3 42 3b
       0.003923706 0.0045570605 -0.0056704376 0.0029718294
000360 ed d1 55 39 c3 f5 9b bb f2 9e cf 3a 0c bf 40 39
       0.00020391466 -0.0047595217 0.0015840216 0.00018381717
000370 9d 23 db 3a 78 7e a3 ba a3 53 39 3b ba 1c b6 bb
       0.0016718988 -0.0012473604 0.002827861 -0.0055576237
000380 2f ff 18 bb b3 1d 22 3b 72 58 30 3c a3 5a 91 3b
       -0.002334546 0.002473694 0.0107632745 0.0044358536
000390 cc 1b 80 bc c3 5a 4b bc a5 92 e7 3a 69 f3 35 bb
       -0.015638255 -0.012411776 0.0017667605 -0.0027763492
0003a0 3f bb f7 3a 83 92 d6 3b 56 9c d2 3b 4c 4a 8a bb
       0.0018900408 0.0065482273 0.006427328 -0.0042202827
0003b0 7b 12 47 3b 3f ef 7a bc 60 2f 7f 3b 4f 80 7e ba
       0.0030376005 -0.01531583 0.003893815 -0.00097084505
0003c0 cb 50 8b bc b1 a7 b0 bb ff 36 f8 bb ee ea a0 bc
       -0.017006299 -0.005391084 -0.0075749154 -0.019643273
0003d0 b2 e6 e1 ba 00 ff f4 bb 11 eb ed ba 92 9d 00 bb
       -0.001723489 -0.0074766874 -0.001815172 -0.001962517
0003e0 1a a7 e9 bb 97 56 8d 3a 83 17 64 bb e6 0f 91 3b
       -0.0071305158 0.0010783252 -0.0034804053 0.004426944
0003f0 c5 3f 10 ba 1c 06 e9 3b 34 77 c2 bb aa d0 c4 bc
       -0.00055026665 0.007111324 -0.0059346203 -0.02402528

update_node_embedding_layer.0.message_layer.weight f4 [64, 128]
000000 6d 33 85 3b d4 b1 61 bb 7c f1 88 bb 4d e1 4d 3c
       0.0040649683 -0.003443827 -0.004179178 0.012565923
000010 30 9e c6 bb 52 f2 c1 ba b6 87 c5 bc 31 6e 0e bc
       -0.006061338 -0.0014796949 -0.024112564 -0.008693264
000020 8a 15 ad ba 8a 43 85 3c 72 b9 71 bc d4 9c b4 3a
       -0.0013205272 0.016267557 -0.014753686 0.0013779649
000030 2d ce cb bb e9 63 59 bb e2 70 89 3b da b2 74 3b
       -0.0062196464 -0.0033171123 0.004194365 0.003733805
000040 7f 9a 2c bc 2f 93 7b bc 96 cd 49 bc 36 c5 93 3b
       -0.010534882 -0.0153549155 -0.012317082 0.0045095934
000050 f7 d7 cb 3b f3 48 90 3b a7 36 a4 bc 26 cd 3c bb
       0.0062208134 0.0044032275 -0.020045592 -0.0028808801
000060 3e 9e 85 bb 01 05 2c 3c 35 54 a7 bb e0 73 81 3b
       -0.004077702 0.01049924 -0.005106474 0.003950581
000070 4a 09 fc bb f3 06 ba 3b f1 a6 d1 bb 5b 1b f1 bb
       -0.007691537 0.005677098 -0.006398075 -0.0073579974
000080 68 c1 65 bc ef 8f 4f 3c c4 dd a2 bc 91 11 08 bc
       -0.014023162 0.012668594 -0.019881137 -0.008304969
000090 6c 7f 5c 3b 6a 93 1a 3c b1 91 14 bc d1 eb 0a 3b
       0.0033645285 0.00943456 -0.009067939 0.0021197686
0000a0 a8 28 cc bb b9 ee 99 3a bf 5e 97 3b a5 95 22 3a
       -0.0062304325 0.0011744119 0.004619449 0.00062021083
0000b0 a5 3b 23 bb fe 6d ab 3b d0 e8 b6 3c 3e 9a 50 3c
       -0.0024907377 0.005231618 0.02232781 0.012732087
0000c0 9b dd ec bb 96 d9 6d bb 16 0b 85 bc d9 25 f1 3b
       -0.007228566 -0.0036293021 -0.016240638 0.007359248
0000d0 6a 46 8b bb 55 c7 f4 ba 21 3f 2b 3c 87 5d 04 3c
       -0.0042503374 -0.0018675128 0.010452063 0.008078939
0000e0 d2 15 3e 3a 72 46 5b 3b a5 5c f2 bb 16 2f 82 bc
       0.0007251176 0.0033458737 -0.007396298 -0.015891593
0000f0 2a 27 c3 3a b5 a9 76 3c 8a c6 df bb c1 4f 0d bb
       0.0014888991 0.01505511 -0.0068290876 -0.002156243
000100 a2 5c 22 3a 4c 16 66 3c 91 e8 53 bc 15 bf 1d 3b
       0.0006193613 0.014043402 -0.012933866 0.0024070193
000110 a1 db 45 3b 17 31 1d 3b 67 5a 54 3b 24 1c 2d 3c
       0.0030190723 0.0023985559 0.0032402517 0.010565791
000120 9e a8 3e bb 28 b3 c2 3b f2 6b 58 ba 2e 1e a1 bb
       -0.0029092203 0.0059417672 -0.0008255831 -0.004916928
000130 77 f1 30 3b 98 09 95 3c e6 38 73 bc 85 23 bc 3a
       0.0026999393 0.018193051 -0.014845109 0.0014353847
000140 4c e1 2e 3a 58 42 32 bc f6 06 53 bb f0 c8 87 bc
       0.0006671145 -0.010880075 -0.0032200194 -0.016575307
000150 8e 97 49 3b d4 2f fc 3b 3d f5 bb 3b 6e 7f 1d bc
       0.00307605 0.0076961312 0.005736022 -0.009612901
000160 f8 ab c6 bb 4d ce ae 3b 0f d8 7f bc 2f 96 44 3c
       -0.0060629807 0.0053346516 -0.015615477 0.011998697
000170 90 26 a1 3b 2d 42 3b bc a8 55 2b 3b 45 ab fb bb
       0.004917927 -0.011429352 0.0026143584 -0.007680329
000180 5b c5 53 3a 09 87 31 3b 67 a0 03 3c 73 e5 fb 3a
       0.00080784195 0.0027088544 0.008033848 0.0019218161
000190 4f 2a c4 bb 38 72 b7 bc 40 a1 c2 bb 76 c0 df 3a
       -0.005986489 -0.022393331 -0.0059396327 0.0017070908
0001a0 b6 4d 08 3b 52 85 85 bc 7f 4c 57 bb e1 bd 85 bc
       0.0020798272 -0.016298924 -0.0032851992 -0.016325893
0001b0 70 f0 31 3c de 03 c6 bb 66 fd 1b bc 43 3d cc 3b
       0.010860547 -0.0060429415 -0.009520864 0.006232889
0001c0 d4 4f 8e bc 7c b9 48 bb 0d 5f c2 3b ae 44 51 bc
       -0.01737205 -0.0030628135 0.005931741 -0.012772722
0001d0 c6 ce aa bb 3b 88 ca bb de 67 ce bc 33 84 27 3c
       -0.0052126376 -0.0061807907 -0.025196012 0.01022439
0001e0 a6 8f 8a 3b 65 16 e8 3b d2 30 35 bc 41 15 78 bb
       0.00422855 0.0070827478 -0.011059003 -0.0037854465
0001f0 9b b1 d4 3b ff 91 d1 3b c2 16 08 bc 38 14 60 3b
       0.006490899 0.006395578 -0.008306207 0.0034191739
000200 f8 bd 0c bd 08 64 19 bd 7c 79 c4 bc bc 0e 27 3b
       -0.034360856 -0.037448913 -0.02398371 0.002549096
000210 f1 fd 13 bd c5 4e 76 3c 16 ba 0a bc 7c a6 a5 bc
       -0.03613085 0.015033429 -0.008467218 -0.020220987
000220 8a 85 8c b7 c5 eb 2d bd d2 d9 3e bd 3f 9b 44 bc
       -1.6751485e-05 -0.042461175 -0.04659445 -0.011999904
000230 c4 13 71 bc bc e9 b4 ba 41 75 12 bd 81 71 90 3c
       -0.014714185 -0.0013802568 -0.035756353 0.017632248
000240 12 8e 82 3c da 61 61 3b 3b b7 54 bc 38 c8 03 bd
       0.015936885 0.00343906 -0.012983139 -0.032173365
000250 49 d6 ca bb 0b 6e c2 bc 21 be 16 bd e8 17 7d bc
       -0.0061900956 -0.023734113 -0.036802415 -0.015447594
000260 80 85 0a bd b0 65 e8 bc ea 67 88 bc 03 3a ca bb
       -0.03381872 -0.0283688 -0.016651113 -0.0061714663
000270 fe 81 8b bc f4 8b 90 3c ca df c5 bc 60 f5 c1 3b
       -0.017029759 0.01764486 -0.024154563 0.0059191436
000280 cd 87 9e bb af 67 e1 3a a5 fd ba bb e0 f1 24 bc
       -0.004837966 0.0017197038 -0.0057065063 -0.010067433
000290 43 88 2b bb 55 72 65 bc bb 34 81 3c 3e e6 f8 bc
       -0.0026173748 -0.01400431 0.015772214 -0.030383226
0002a0 09 91 41 bc 86 eb 99 bc 92 8f be 3b 91 90 13 bd
       -0.011814364 -0.018789064 0.0058154548 -0.03602654
0002b0 76 ab 37 bb b2 c3 bb bc 38 2c 10 3b 7d 72 18 bd
       -0.0028025783 -0.022920463 0.0021999013 -0.03721856
0002c0 e2 b9 da bc 23 2a df bc fb da fc bb 9c 70 d6 bc
       -0.026699964 -0.027241772 -0.007716534 -0.026176743
0002d0 10 6d b3 bc 4f a9 53 bc e0 82 b7 bc 2a d4 12 bb
       -0.021902591 -0.012918784 -0.022401273 -0.0022404292
0002e0 ef eb 8d 3b 17 b3 a5 3b 8c 3e d7 ba f5 d0 f4 bb
       0.004331104 0.0050567496 -0.0016421839 -0.0074711987
0002f0 44 e0 ab ba b2 06 85 bc bc 96 24 bc 4c 77 4f 39
       -0.0013113101 -0.016238544 -0.0100457035 0.000197855
000300 9d a0 0d 3d 8f 98 9e 3c 3a c7 c9 3c 4d 38 3b bb
       0.034577 0.019359855 0.024631131 -0.0028567493
000310 0e db 2d 3d 8b a9 79 3c 2f 0b b2 3c 44 7b 0e 3c
       0.042445235 0.015238176 0.021733848 0.008696381
000320 60 6d 25 bc 7b 72 02 3d 67 e4 0b 3d d0 5f 3d 3d
       -0.010096878 0.03184746 0.03415337 0.046233952
000330 1f 31 94 3a 55 8e 1d 3d 01 d8 44 3d c9 1f cb 3c
       0.0011306143 0.038465817 0.04805756 0.02479543
000340 e4 6a a4 3b b2 90 31 3c 3f 73 32 3d 02 a2 e2 3c
       0.005017625 0.010837721 0.04356694 0.027665142
000350 69 1c d3 bc ce fa ba 3c 5f b3 fd bd 65 82 8f 3c
       -0.025770383 0.022824671 -0.12387728 0.017518232
000360 dc fe d6 bc 83 98 e5 3c 09 5c 43 3c 9b 3c 09 3d
       -0.026244573 0.028026825 0.011923798 0.033505064
000370 c0 8d 16 3d 18 e1 08 3d 62 5d ea 3c 00 bd f4 bd
       0.036756277 0.03341779 0.028608982 -0.119501114
000380 6d 04 13 bc 4b ec 8c 3c d8 32 40 3d 03 82 6c 3c
       -0.008973223 0.017202517 0.04692349 0.014435294
000390 78 6a 9c bc a3 aa 27 3d 4b b8 b8 bc 19 de cb 3c
       -0.019093737 0.040934216 -0.022548815 0.024886178
0003a0 1b eb c7 ba 90 f3 fa 3c 29 d1 a9 3b 66 d8 28 3d
       -0.0015252562 0.030633718 0.0051824045 0.041222
0003b0 31 bb d3 3c 21 f5 1d 3d f6 06 4f 3d c5 19 13 3d
       0.025846096 0.03856385 0.050543748 0.035913248
0003c0 c7 69 c8 3b 84 9b 03 bd 39 91 41 bc 40 b9 06 3d
       0.0061161253 -0.032130733 -0.011814409 0.032891512
0003d0 7c f4 88 3c ec 9c 16 3d a6 33 5b 3b 16 25 1c bc
       0.016718142 0.036770746 0.0033447533 -0.009530326
0003e0 c5 1b 5f bb 36 28 c4 bc 3f c7 dc 3c ed a3 93 39
       -0.0034043652 -0.023944955 0.026950477 0.0002816016
0003f0 c4 14 92 3c 68 0b 73 3b 38 28 fb 3c 23 0f 1d 3d
       0.017832167 0.0037085656 0.030658826 0.038344514

update_node_embedding_layer.0.update_layer.weight f4 [64, 128]
000000 03 11 e3 3c b4 3a 54 3d d7 ff 4f 3d a0 fc 55 3c
       0.027718073 0.051813796 0.050781097 0.013060719
000010 7c b7 42 3d 17 32 17 bc 67 4c 84 3c 11 70 27 3d
       0.047538266 -0.009228251 0.016149713 0.04087836
000020 ef 70 d2 bb f1 fe 12 3d 54 b7 36 3d 63 d3 4a bb
       -0.006422154 0.035887662 0.04460843 -0.003094875
000030 b9 ba 21 3d 34 92 43 3b 53 34 46 3d 21 71 94 3b
       0.039484713 0.0029841783 0.048389744 0.0045300876
000040 a4 c0 10 3c cc 83 ee 3b 11 a5 68 3d 1c e7 f5 3c
       0.008834992 0.007278895 0.056798045 0.030017428
000050 b2 b8 4d 3c 9c f2 80 3d f0 89 24 3d bf 92 f2 3b
       0.012556242 0.06296274 0.04017061 0.0074027474
000060 40 eb 24 3d ef 3f 20 3d ed 28 17 3d 01 6a e5 bb
       0.040263414 0.03912347 0.036904264 -0.007001162
000070 f9 0b 3f 3d a7 de 9d bb c3 92 42 3d ed 2e 63 39
       0.046642277 -0.004817802 0.047503244 0.00021665888
000080 da 19 ad bc 19 63 5a 3d c4 4b 07 3d cf b6 fa ba
       -0.021130491 0.053317163 0.03303124 -0.0019127968
000090 31 31 ef 3c 86 95 21 3d 6f 32 b5 bb d7 31 1f 3d
       0.029198261 0.039449237 -0.005529694 0.03886589
0000a0 92 9c 3e 3d 12 8c 15 3d 84 eb 50 3c ac a4 39 3d
       0.046536036 0.036510535 0.012751464 0.04532306
0000b0 46 da b4 3a f4 12 0b 3d 6b 7f 1d 3d 1f 95 06 3d
       0.0013797961 0.033953622 0.038451593 0.032857057
0000c0 4a 17 24 3d 7e 81 3f 3d e5 e1 2e bb 09 0a 1c 3d
       0.040061273 0.046754353 -0.0026684937 0.038095508
0000d0 13 24 ab 3c 51 e5 0d 3d 6c 27 34 3d 1a c8 b6 3c
       0.020891225 0.03464252 0.043982908 0.022312213
0000e0 77 f6 a5 3b 5c 73 e0 bb e5 a7 7b bb 15 80 32 3d
       0.0050647813 -0.0068496894 -0.0038399633 0.04357918
0000f0 04 0b 7a 3b 71 4d 35 3d ec 39 66 3b 8b bc 18 3a
       0.0038153538 0.044263307 0.003512974 0.0005826435
000100 d6 de fe 3c b0 46 eb bb 30 b6 b3 3b af af fc 3b
       0.031112116 -0.0071800575 0.005484365 0.007711373
000110 19 e5 29 38 d8 1d 65 3c be 1d 6f bc 65 e1 ce bc
       4.0506104e-05 0.013984166 -0.014594493 -0.02525396
000120 d4 44 95 3c 67 2d 2e 3c ca 5b c3 bb 37 05 3e 3c
       0.018221296 0.010630942 -0.00596187 0.011597923
000130 be 51 14 3c 73 fb 39 3c 3b 21 1f 3d 14 7a 10 3d
       0.009052692 0.011351454 0.03885005 0.035272673
000140 d3 34 76 3d f9 5b 75 3c 73 f0 ee 3c c4 a8 75 bc
       0.06010897 0.014975541 0.02916739 -0.01499385
000150 ac 1f c8 bb f2 36 97 3b 47 67 97 3c d4 62 ac bc
       -0.006107291 0.0046147043 0.018481864 -0.021043219
000160 3e 3c 00 3c 4d 8a 95 bb 2f 95 ae 3c ad 05 f5 3c
       0.007826863 -0.004563606 0.02131137 0.029909933
000170 5a b8 84 3c 3a 12 20 3d 05 4c b6 3c 0f 61 6b 3d
       0.016201187 0.039079882 0.022253046 0.05746561
000180 73 d0 d2 bc d2 98 18 bc 2a 2f 8a 3c c4 f0 06 3c
       -0.025734162 -0.009313779 0.016868193 0.008236114
000190 dd 7a 52 3c 2b 10 a9 3c f0 5d af bb b8 41 ef 3c
       0.012846676 0.020637592 -0.0053517744 0.029206142
0001a0 31 ad c7 3b 3c 06 28 3c 50 e8 2c bd cf 18 0b 3d
       0.006093644 0.010255393 -0.042213738 0.033959206
0001b0 31 30 79 3b 1b d3 05 3d 65 c7 99 3c c6 8c 9b 3c
       0.003802311 0.03267203 0.018771837 0.018988024
0001c0 e7 51 30 bc fd 8b 3d 3d 17 f3 f1 3b 44 77 90 3c
       -0.010761715 0.04627608 0.007383715 0.017634995
0001d0 6c bc 48 3c 80 53 80 3c b0 f5 70 3c c5 ae 1a bc
       0.0122519545 0.015664816 0.014707014 -0.009441082
0001e0 70 64 a0 bb 01 e7 53 3c c2 4a dd 3a 98 92 80 3c
       -0.0048947856 0.012933494 0.0016883241 0.015694901
0001f0 ff 97 ad 3c ea ba be 3c b0 09 01 3d 3b d7 0a bd
       0.021190641 0.023282487 0.03150338 -0.033896666
000200 21 17 8d bd da 13 ab bd 34 34 95 bd 7c e5 09 bc
       -0.06889177 -0.08353396 -0.072853476 -0.00841653
000210 75 11 a4 bd 55 42 0b 3c e8 b2 05 3c 95 40 92 bd
       -0.08011142 0.0084997015 0.00816033 -0.07141224
000220 e6 99 25 3c 3c b2 a7 bd 7a df c8 bd 28 1b cd bb
       0.010107493 -0.081882924 -0.0980825 -0.006259341
000230 57 75 ba bd ac db 34 3b 73 4e dc bd 3c e0 92 bc
       -0.09104412 0.0027596755 -0.107571505 -0.017929189
000240 86 f5 ef bb 2c ff 85 bc af 35 86 bd 4c a7 a9 bd
       -0.00732297 -0.016357027 -0.06553208 -0.082838625
000250 77 15 b7 3b b0 b4 9b bd ac 2c a4 bd 14 bc b0 3b
       0.0055872756 -0.07602823 -0.08016333 0.0053935144
000260 f3 00 be bd 17 a8 b1 bd a0 ec 8f bd 1f 74 55 bb
       -0.09277525 -0.08674639 -0.070275545 -0.0032570434
000270 f8 1a c1 bd 58 0b 94 bc 91 d6 a6 bd b2 06 06 3c
       -0.09428972 -0.018071815 -0.08146394 0.008180307
000280 1c 81 ae bb f6 d5 a5 bd 2b d4 be bd 56 ed 05 bc
       -0.0053254496 -0.080974504 -0.093178116 -0.008174261
000290 ad f3 a6 bd 65 34 9e bd 5c 1d 91 39 b4 12 98 bd
       -0.08151946 -0.07724837 0.0002767843 -0.07425442
0002a0 8a d6 98 bd 7d d3 89 bd bf a6 aa b7 48 bc a0 bd
       -0.07462795 -0.06729791 -2.0343226e-05 -0.07848412
0002b0 16 24 6e bc db 5f 97 bd 0d 61 99 bd e7 00 66 bd
       -0.014534971 -0.0739133 -0.07489214 -0.056153204
0002c0 7d 9b 9c bd 2a a3 b2 bd 9a fd ff 3b bf 5e c7 bd
       -0.076468445 -0.08722527 0.007812214 -0.09734868
0002d0 a5 37 b3 bd 56 b1 a7 bd a8 e3 ec bd 83 1f 54 3c
       -0.08750848 -0.08188121 -0.115668595 0.012946966
0002e0 13 76 73 bc 08 2b 8a bc 44 85 d6 ba 94 da ac bd
       -0.014859694 -0.016866222 -0.001636662 -0.08440128
0002f0 55 1c 1b bb 46 3e 90 bd d1 50 a8 bc 72 34 c0 ba
       -0.002366801 -0.07043128 -0.020546349 -0.0014664067
000300 7b 49 90 3b 63 63 41 3d 95 74 a4 3d 0d d9 dc 3a
       0.004403291 0.047213923 0.08030049 0.0016849354
000310 e6 7c 8f 3d 0d f2 8c 3d 20 dd 14 3d ab c2 0c 3e
       0.07006244 0.06882105 0.036343694 0.13746135
000320 42 6f f0 bb 95 06 24 3d d5 76 bf 3b 67 90 62 3d
       -0.0073374817 0.04004534 0.0058430233 0.055313494
000330 62 c8 4a 3d e2 cd 87 3d 11 12 7b 3d 80 2a 22 3d
       0.049507506 0.06631066 0.061296526 0.039591312
000340 27 ae 26 bc ef 9e 67 3d 09 a7 99 3d a5 c4 08 3d
       -0.010173357 0.056548055 0.075025626 0.03339066
000350 a8 e2 88 3d 48 c1 50 3d ba b2 5e 3d 12 d9 dd 3d
       0.06683856 0.050965577 0.054369666 0.108324185
000360 c3 3c 5b 3d 57 dc 00 3e 76 8b 34 3d 3c 03 f0 bb
       0.053524744 0.12584053 0.044078313 -0.0073246043
000370 60 a4 6b 3d ed 16 1e 3d 6f ae 7d 3d 72 1c af 3d
       0.057529807 0.038596082 0.06193393 0.085503474
000380 3a b1 13 3e c5 96 30 3d 19 50 51 3d 99 62 ba 3b
       0.14423075 0.043112535 0.051101778 0.0056880233
000390 ad 4c 61 3d 2e 43 3f 3d 71 3e 64 3d 37 66 63 3d
       0.055004764 0.046694927 0.05572361 0.0555174
0003a0 c2 b2 7d 3d 65 46 03 3d 83 94 95 3d cd 31 87 3d
       0.061938055 0.032049555 0.07303717 0.066012956
0003b0 fa 7d 88 3d 8d 06 34 3d e6 9e 75 3d 2a 62 49 3d
       0.06664653 0.04395156 0.05996599 0.049165882
0003c0 4c 1f 4f 3d 76 35 f8 3b 1c 61 34 bc 08 33 71 3d
       0.050566956 0.0075747324 -0.011009481 0.058886558
0003d0 38 2d 69 3d f5 d4 93 3d b8 f2 9d 3d c9 d6 05 3e
       0.05692789 0.07218353 0.077123106 0.13070215
0003e0 7d 8d 5e 3d a6 f3 ee 3c 0d 13 5c 3d 5b f5 7f 3d
       0.054334152 0.029168915 0.053729106 0.06248985
0003f0 f4 ad 82 3d d6 9e 6a 3d 17 f3 34 3d ac cf 2e 3c
       0.06380835 0.057280384 0.04417714 0.01066963

update_node_embedding_layer.1.message_layer.weight f4 [64, 128]
000000 96 3d 96 3a 48 d2 9d bd b1 7e 70 3b 22 aa 0c bd
       0.0011462446 -0.077061236 0.0036696608 -0.03434194
000010 98 c0 8b 3d 49 ab 00 bb ef 36 c7 3c 30 dc 4d bb
       0.06823844 -0.0019633344 0.024318187 -0.003141176
000020 2d 26 39 3c fa 59 22 3d e6 52 65 ba 87 51 af 3c
       0.011300606 0.03963659 -0.00087480096 0.02140118
000030 06 7f 9d bd 86 96 93 bd ce 47 47 bb 4f 60 08 bd
       -0.076902434 -0.072064444 -0.003040779 -0.033294972
000040 8b a3 d6 bc 2b 0c 91 bd 28 3d 2a bd 35 08 c5 3c
       -0.02620103 -0.07082399 -0.04156223 0.024051765
000050 58 28 2f 3c b2 6c 02 bd dd 25 96 bc 94 1b d8 bb
       0.010690771 -0.03184194 -0.018328601 -0.0065950844
000060 18 e0 a8 bd d5 c4 b1 bb 4b e0 55 bd 1a 2d 1f bd
       -0.082458675 -0.0054250755 -0.052215856 -0.03886137
000070 f2 58 8a bc 12 41 01 3c d5 98 81 bd f6 59 ad 3c
       -0.016888116 0.007889049 -0.063279785 0.02116106
000080 d9 9c 9d bd 3e ad 50 3d 91 5a 09 bb 12 93 8d bc
       -0.07695932 0.050946467 -0.0020958523 -0.017282043
000090 fa 34 93 bd 98 39 cc 3c 81 0d f3 bc 57 2a 98 bb
       -0.07187839 0.024929807 -0.029669525 -0.004643719
0000a0 4a 62 e8 bc b5 db b6 bb ad 92 d7 bc 05 c9 f1 3c
       -0.02836718 -0.0055803903 -0.026315058 0.029514799
0000b0 f8 74 32 bd 52 de be 3c 75 3a 88 bd 1d 1d cf bc
       -0.04356858 0.02329937 -0.06651775 -0.025282437
0000c0 95 60 aa 3c e3 6a 8c 3d c6 7d 51 3c 5a 72 70 3c
       0.020798007 0.068563245 0.012786334 0.014675701
0000d0 fd 02 61 bd 8b 6f ba 3b 56 5b 8c 3c 5d 76 9d bd
       -0.05493449 0.0056895665 0.017133396 -0.07688592
0000e0 6a ad 7d bd a3 da 36 3d d1 43 19 3c 27 59 ac bb
       -0.06193296 0.044642102 0.009354548 -0.005259651
0000f0 ff 84 8c bd e6 8c 9f bd d0 f8 72 3d 97 b9 a6 bb
       -0.068613045 -0.07790546 0.059319317 -0.005088042
000100 c9 c9 e6 3c 3a fe ab bb 74 33 64 bc 20 6d 6f 3c
       0.02817239 -0.005248812 -0.013928283 0.01461342
000110 d1 82 08 bd 7f ff 1d 3c e0 27 3e 3d ed da bb 3a
       -0.03332788 0.009643435 0.046424747 0.0014332213
000120 fc b0 0c bd a1 0d c6 bc e0 7f 4a bb 9b a9 01 bd
       -0.034348473 -0.02417642 -0.0030898973 -0.03165589
000130 27 5e 81 bb 22 9c 0f bc 96 44 8c 3d 1c 0b 01 bd
       -0.0039479914 -0.008765252 0.06849019 -0.031504735
000140 d4 4a 99 3b b7 7b 72 3c e5 5b 18 bc 9a 46 81 bc
       0.0046781097 0.014800004 -0.009299253 -0.015780736
000150 ef d0 e7 3d d5 2c 9d 3b 35 c7 73 39 a8 7e 56 bc
       0.11319148 0.004796604 0.00023248496 -0.013091721
000160 31 43 ad bb a4 c0 d8 3c 0a df 07 bd 27 59 b4 bc
       -0.005287551 0.026459046 -0.03317169 -0.022015167
000170 4e 1a db bc 6f d4 76 bc 05 cc 34 be fe 64 04 3d
       -0.026745941 -0.015065297 -0.17655952 0.032322876
000180 2d 83 e0 bb 58 e6 7c bc c1 73 e9 3c 64 1b e6 3b
       -0.006851575 -0.015435778 0.028497579 0.007022308
000190 f7 73 07 bd 08 f0 f5 bc bb fb 93 3d b2 e3 58 bc
       -0.033069577 -0.030021682 0.07225748 -0.013237881
0001a0 e0 c7 5e bc 76 51 ef 3c bb 78 55 bc aa cc f6 bc
       -0.013597459 0.029213648 -0.013029273 -0.030126888
0001b0 22 c6 fd bb 50 cb 14 3d 64 d1 b0 bc fa ea 39 bb
       -0.0077445665 0.036326706 -0.02158422 -0.0028368817
0001c0 7a 49 3c 3c 73 33 29 bd f6 5b 0a bc 5c 68 a5 bc
       0.011492128 -0.04130883 -0.008444777 -0.020191364
0001d0 cc 27 6b 3b 0d bf a9 bc 3c 84 50 3b ba 76 09 bc
       0.0035881875 -0.020720983 0.00318171 -0.008390123
0001e0 eb 0d 03 bc 6b 3b 58 bd 10 d2 71 bc 6f 14 84 3c
       -0.007998924 -0.05279104 -0.014759555 0.016123025
0001f0 10 f0 bc bc 2f 07 4b bc c5 80 9c 3c ec 00 46 bc
       -0.02306369 -0.012391849 0.01910437 -0.012085181
000200 b8 4b 6e bc 56 da dc 3c 25 56 21 bd 11 db ba bc
       -0.01454442 0.02695958 -0.039388794 -0.022809537
000210 74 47 11 be 31 90 8a bb 92 d5 da bc 99 6d 05 bd
       -0.14187413 -0.0042286147 -0.026713166 -0.032575224
000220 f4 ed 1c bc e9 25 08 bd f0 2b 89 3c 3e 68 45 bd
       -0.009578217 -0.03323928 0.016744584 -0.048195116
000230 57 9f 5b 3c 41 13 29 3d 02 4d ac 3c d8 41 e7 bc
       0.013404689 0.041278128 0.021032814 -0.028229639
000240 08 ce 46 bd ae ba 14 3d 8d 64 cc bc 8e 66 86 bd
       -0.04853633 0.036310844 -0.02495029 -0.065625295
000250 98 56 31 bd 77 1c 1a bd f0 9f 0d bd 15 3e 30 bd
       -0.043295473 -0.037624802 -0.034576356 -0.043027956
000260 9d 53 90 3c 0b f8 18 bd 9c d0 59 bd 3a 3b b5 bc
       0.017617995 -0.037345927 -0.05317746 -0.022122968
000270 79 de 1c bd d3 77 85 3b 6c 78 0c 3d a7 67 ae bc
       -0.038298104 0.004073122 0.03429453 -0.02128966
000280 8d 43 0a 3d 59 98 df bc b1 6d 1f bc 98 f1 25 bd
       0.033755828 -0.027294325 -0.009730742 -0.040513605
000290 f2 d5 04 3d 81 8c 00 bd 4a b1 d8 bc 90 ba 81 bc
       0.032430597 -0.031383995 -0.026451726 -0.01583603
0002a0 3e 9e 22 bd 28 60 78 bd a9 16 c4 bc d7 24 4b bd
       -0.039701693 -0.060638577 -0.023936586 -0.04959568
0002b0 b5 d9 3c bd bf 87 4c bd 53 b9 37 3b a3 82 49 bd
       -0.04610606 -0.049934145 0.0028034046 -0.04919685
0002c0 67 14 fd bc 0d 7d c2 3d 91 db 5b 3c f2 6c 03 bd
       -0.030893518 0.09496508 0.013419048 -0.03208632
0002d0 3d 94 0b 3d 3b b2 ae bc 41 1f 1e bd 95 a2 24 3d
       0.034076918 -0.021325221 -0.038604025 0.040194113
0002e0 5f 3f 48 3d 27 9c ce 3d 4b 50 05 bd 9a 64 d3 bc
       0.04888856 0.100883774 -0.032547276 -0.025804807
0002f0 6f 98 49 3d e1 76 19 3d 43 18 c3 3d 52 c2 05 bd
       0.049217638 0.037466887 0.09526112 -0.03265602
000300 8c 5d d1 3c 28 e7 bc 3b 95 60 29 3d ce 8e f7 3b
       0.025557302 0.0057648607 0.041351873 0.0075548654
000310 bd 97 d9 3c 58 eb 72 3c b6 ed b5 3c 7a 09 dc ba
       0.026561612 0.014826618 0.022208076 -0.0016787492
000320 ea 77 04 bc 10 fa 37 3d 73 48 02 3d 21 8c 97 3c
       -0.00808523 0.044916213 0.031807374 0.018499436
000330 89 d8 39 3c 2f a6 12 3d 90 ae 46 3d 0a ea e5 3c
       0.01134313 0.035803016 0.04850632 0.0280657
000340 38 5d cd 3b ff f7 0d bc c3 b1 07 3d 24 d4 54 3d
       0.006267216 -0.008665084 0.03312851 0.051960126
000350 58 fd ed 3b d1 64 52 3c 49 0e e6 bd e2 01 46 3d
       0.007262867 0.012841419 -0.112331934 0.04834164
000360 20 18 7f bb 9c ae 54 3c 88 63 d9 3c 41 da e9 3c
       -0.0038924292 0.012981083 0.026536718 0.028546454
000370 3e 6f a6 3c 0d fe a4 3c 6e ba 29 3c ea 99 e1 bd
       0.020316716 0.020140672 0.01035939 -0.11015685
000380 e9 ad d8 3b 08 4c d3 3c 82 ec b1 3c b8 b4 9d 3c
       0.0066125286 0.02579309 0.021719221 0.019251212
000390 27 61 fd bc 5e 0b 44 3d b3 9c 9c bb d5 01 54 3d
       -0.030930115 0.047862403 -0.004779422 0.05175956
0003a0 dd 8e 29 b9 06 eb a2 3c 2d 06 9f 39 ce 4a be 3c
       -0.00016170317 0.019887459 0.00030331445 0.023229029
0003b0 e2 43 f9 3c b5 20 06 3d f4 3c 1e 3d aa 8d b5 3c
       0.030427877 0.032746036 0.03863235 0.022162277
0003c0 c2 c8 4b 3b 5b ee 42 bd fb ef df bb 9c 9a f5 3c
       0.0031095003 -0.047590595 -0.006834028 0.02998095
0003d0 0a cb 53 bc e0 40 28 3d d7 1b 19 3d 92 fb de bb
       -0.012926826 0.041077495 0.037380066 -0.006804892
0003e0 47 cd 5e bc 2b c8 25 bd 5e 2c 07 3d ee 63 d5 ba
       -0.013598747 -0.0404741 0.033001296 -0.0016280392
0003f0 66 b2 ed 3c a6 d9 c1 bb 50 08 f0 3a c4 6c 8d 3c
       0.029015731 -0.0059158383 0.0018313024 0.017263778

update_node_embedding_layer.1.update_layer.weight f4 [64, 128]
000000 3b 7f 34 bd 69 1c 47 3d b0 0f 6c bd d5 37 e1 3c
       -0.04406665 0.04861108 -0.05763215 0.027492443
000010 0d e6 0c be b4 b3 8a bc 58 11 80 bd 91 59 1d bd
       -0.13759632 -0.016931392 -0.06253308 -0.038415495
000020 9e 15 81 3a ef ac 55 bd a1 81 3f 3c e6 ba 18 bd
       0.0009848361 -0.052166875 0.011688621 -0.037287615
000030 8c 3c 52 3d 39 11 f2 3c 7c ed 42 bd 3c 5b 73 bc
       0.051327273 0.029549228 -0.047589764 -0.014853295
000040 02 99 25 3c 83 68 55 3d ec 8c 0f 3d f7 9e e3 bc
       0.010107281 0.052101623 0.035046503 -0.027785761
000050 59 b8 7b bd 9a 2a 05 bc ef 65 21 bd d8 dc cf bc
       -0.061455105 -0.008127833 -0.039403852 -0.025373861
000060 1a 47 86 3d a5 bb 07 3a 3f f0 bc 3c 5e 68 2e bc
       0.0655653 0.00051778025 0.023063777 -0.010645
000070 ac af cd bb 9d ab 03 b9 4a 30 84 3d be 97 8c bd
       -0.0062770452 -0.00012557064 0.06454523 -0.0686488
000080 f9 9a 42 3d a2 db 0c be ca 00 0e bc 37 ca c6 bc
       0.047511075 -0.13755658 -0.00866718 -0.024266345
000090 88 67 8c 3d 6d a2 8a bd cf c0 12 3d 30 ad 52 bd
       0.068556845 -0.067692615 0.035828408 -0.051434696
0000a0 1e 90 00 3d c1 7a ac 3b e6 d0 61 bc 85 da 5e bd
       0.03138744 0.005263657 -0.013782715 -0.054407615
0000b0 2b f9 9a bc 07 8a 70 bd d2 7a 72 3d 0d 4c 1c bd
       -0.01891764 -0.058725383 0.05919916 -0.038158465
0000c0 6c 13 83 bd a1 c3 8f 3d 5b ae a3 3b 82 dc 63 bd
       -0.06400189 0.07019735 0.00499515 -0.055630215
0000d0 66 ba 3b 3d 61 7e 14 bd 8d b4 8e bd fc 68 89 3d
       0.04583206 -0.036253337 -0.06968031 0.06709477
0000e0 bc 8f 77 3d 6f 53 1e 3d 26 9b 0b bd 6d 52 37 bd
       0.06043981 0.038653787 -0.034083508 -0.04475634
0000f0 8d 5c 8a 3d 0c 96 71 3d 0a df 48 3d 7b 35 8c bd
       0.06755934 0.058980986 0.04904083 -0.06846138
000100 af a4 5c bb 46 f0 e2 3c 5e 96 a8 3d 84 cf fe 3c
       -0.0033667495 0.027702462 0.08231805 0.03110481
000110 33 37 17 3d 74 f2 82 3d f3 3e 12 3a 8c d1 1d 3d
       0.036917876 0.063939005 0.0005578838 0.038529918
000120 45 6e 88 3d cf 05 03 bd c1 e5 7c 3d e7 25 fe 3c
       0.06661657 -0.03198796 0.061742548 0.031023933
000130 1d a4 92 3d bc 80 6d be 98 f7 88 3d 37 b2 e5 3b
       0.071602084 -0.2319364 0.0668785 0.0070097703
000140 ae a6 51 3d 40 a7 a1 bc 43 9b 4f 3d 3d d5 a4 3d
       0.05118435 -0.019733071 0.05068518 0.080484845
000150 68 0e 44 3d 02 ee a4 3d 14 ef 05 3d 58 7d 22 3d
       0.0478653 0.08053209 0.032698706 0.03967032
000160 1a 51 58 3d 4a 6a 3b 3d 9f 10 34 3d a6 1a d1 bd
       0.05281172 0.045755662 0.043961164 -0.10210161
000170 20 9a 44 3d 1a dd b9 bb 7a cb 71 bd a2 26 6a 3d
       0.047998548 -0.0056721093 -0.05903194 0.05716575
000180 6a a0 80 3d 12 34 37 3d fb 4b b5 3d 30 8a 80 3d
       0.062805966 0.044727392 0.08852383 0.06276357
000190 97 aa bf 3d 3b 3c 27 be b1 b0 50 3d ff 4a 2a 3d
       0.09358709 -0.1633157 0.050949756 0.041575428
0001a0 22 b8 39 3d 36 87 84 3d d6 eb 93 3d 0b e8 62 3d
       0.04534162 0.06471102 0.072227165 0.055397075
0001b0 40 29 39 3d 5e ff 5f 3d bd dd 0b 3c 9f 7d 3e 3d
       0.045205355 0.054686897 0.008536753 0.04650652
0001c0 e5 17 14 bc 02 01 19 3d 2b 6f 86 3d 37 e6 01 3d
       -0.0090389 0.037354477 0.06564172 0.03171369
0001d0 ee 53 02 3d 77 a6 9d 3d 63 fe b9 3d 76 fe 05 3d
       0.031818323 0.07697766 0.090817235 0.032713376
0001e0 ee d3 4f 3d b2 cd 83 3d e0 c3 f7 3c f6 e0 e7 bb
       0.05073922 0.06435718 0.030244768 -0.007076378
0001f0 63 f9 6d 3d 7a 1e 55 3d 06 1e 52 3d 35 30 a5 bc
       0.05809916 0.052031018 0.051298164 -0.020164588
000200 73 1e 62 3c 56 16 e6 3b 0e 74 a3 b8 5e 7b 5f 3d
       0.013801205 0.0070217056 -7.7940625e-05 0.05456101
000210 46 b3 5f 3e cb 70 8a bb d7 cc 4e bb f0 50 fc 3b
       0.21845731 -0.0042248718 -0.00315552 0.007700078
000220 af 1a a4 3b 89 38 5f 3c b7 48 34 bc 60 ba 56 3c
       0.0050080637 0.013624319 -0.011003665 0.013105959
000230 bd 8d 2d ba 8f 07 13 3d e9 ec 06 bb 4f a3 98 3c
       -0.0006620547 0.03589588 -0.0020587987 0.01863256
000240 dc fa 02 3d 19 83 2e bc 14 37 31 3d 5d c7 e7 3c
       0.03197752 -0.010651373 0.043265417 0.028293306
000250 6f c1 c1 3b 6a ea df ba ad 03 e5 3c a1 5c fc 3b
       0.0059129517 -0.0017083411 0.027955854 0.007701472
000260 a0 95 2b 3c 0d 3f 8b 3c 4e 06 6b 3c 34 b3 c2 3c
       0.010472685 0.016997838 0.014344765 0.023767091
000270 7a ac bf 3c 51 02 85 3b c2 44 8a 3c 71 d0 3b 3c
       0.023397673 0.004059114 0.01687849 0.0114632705
000280 e0 01 9d ba 96 ac 7c bd 5a 81 4a 3c 6c c4 95 3c
       -0.0011978708 -0.06168803 0.012359941 0.018282138
000290 43 28 95 3b 49 8f 45 3c 73 1d 39 3d f4 bc 6d 3c
       0.0045519187 0.012058088 0.0451941 0.014510382
0002a0 4d 39 7d 3d f2 44 48 3d 75 34 1a 3d a1 d6 f4 bb
       0.061822224 0.048893876 0.037647683 -0.007471875
0002b0 bb a9 1f 3c 70 06 fc 3b 8d 3b dd 3c 1d 5a a7 3c
       0.009745057 0.007691197 0.027005935 0.020428712
0002c0 b1 28 fa 3c 28 13 31 3d 41 2d 3d bc d0 ca 58 3c
       0.030536981 0.04323116 -0.011546434 0.013231948
0002d0 6e 7f 8a 3c 4c 72 21 3c 88 b8 62 3c e3 13 c3 3a
       0.016906466 0.009853911 0.013837941 0.0014883246
0002e0 6f 3d 80 bb 14 dc 13 3d 6b aa 27 3c 5d 98 e5 3c
       -0.0039135735 0.036098555 0.010233502 0.028026754
0002f0 ca 83 f4 bb c8 fc 88 3c 35 e6 4a 3d e2 6b 5d 3c
       -0.0074619995 0.016722098 0.04953595 0.013514491
000300 93 25 21 3d 98 44 c2 3c 37 68 9b 3c 13 8a cc 3c
       0.039342474 0.023714349 0.018970592 0.024968183
000310 a8 22 35 39 f7 b6 01 bd cc 1f 82 3c 38 e6 9e 3c
       0.00017274416 -0.03166863 0.015884303 0.019396886
000320 c3 68 86 3c 7a 11 7c 3d 6d 5f 4a 3d 81 58 cf 3c
       0.016407376 0.061540104 0.04940741 0.025310757
000330 89 cf 8e 3c 84 b3 3b 3e 0b bc d7 3c df 27 2e 3c
       0.017432945 0.18330199 0.026334783 0.010629623
000340 c7 f9 b2 3c d8 87 54 3d 32 cf 4a bd 56 7d 80 bc
       0.021847619 0.051887363 -0.049514003 -0.015684765
000350 ad d2 6d bb 9b 81 40 bc 59 0d a1 3c 0e 63 01 3d
       -0.0036288903 -0.01174965 0.019659685 0.031588607
000360 89 71 d4 3c 92 84 ce 3c 9d 12 c4 bc c0 12 ec 3d
       0.025933044 0.025209699 -0.023934657 0.11527014
000370 3e 78 80 bd 6e e2 67 bb 30 07 11 3d f3 7e 05 3d
       -0.062729344 -0.0035382765 0.035407245 0.03259177
000380 c4 11 86 3c 48 f3 df 3b e7 d9 66 bc 8e ee 99 bd
       0.016365893 0.0068344213 -0.014090038 -0.07516204
000390 84 6d e7 bc 0a 07 1d 3e 3c b8 c4 3c 71 79 13 bd
       -0.028250463 0.15334716 0.024013631 -0.036004487
0003a0 1c cf 15 3d 26 be 8e 3c f0 7d f5 3b 35 fa 50 3c
       0.036574468 0.017424654 0.0074918196 0.0127549665
0003b0 5d 0a 8e 3c b9 9e 30 3b 2c aa f2 bc 34 2d 1f 3d
       0.017338926 0.0026950075 -0.02962216 0.03886147
0003c0 4d da 88 3d a6 82 eb bc a5 de 10 bd 6b fa c0 bc
       0.066822626 -0.028748821 -0.03536858 -0.023556909
0003d0 5f d1 b6 3c 88 27 04 3d 0d bc 7a 3c 68 ff 84 3b
       0.022316633 0.032264262 0.015303624 0.004058767
0003e0 13 c6 eb 3c 97 d4 1c 3d a9 bb b2 3c 55 85 70 3d
       0.028780973 0.03828868 0.021817999 0.058720905
0003f0 5b e7 18 3c fe ac a2 3c 85 71 6a 3c 4e 80 8d 3d
       0.009332503 0.01985788 0.014309292 0.06909238

update_node_embedding_layer.2.message_layer.weight f4 [64, 128]
000000 42 1a 82 3c 9b fe 70 3c 9a 6c a3 3b 40 0d 26 3d
       0.015881661 0.01470914 0.0049873115 0.04053998
000010 a6 d9 36 3b 0c 71 9b 3c f9 c3 47 bb 85 c7 1c bb
       0.0027900725 0.018974803 -0.00304818 -0.0023922634
000020 64 0c 1d bc d5 6e 36 3d 94 53 c1 b6 ed dd 9e bc
       -0.009585474 0.04453929 -5.761578e-06 -0.019392932
000030 3b c3 30 3c 78 42 be bc 0f 76 be 3c 7f e1 dd 3b
       0.010788734 -0.023225054 0.023249654 0.006771266
000040 d2 b7 17 bc 44 e0 11 3c 1c 35 8a 3c b5 49 d1 bc
       -0.009260135 0.008903567 0.016871028 -0.025547842
000050 4b 43 93 3b 5e 46 91 3b 51 b0 b8 bb f2 74 94 3b
       0.004494106 0.0044334373 -0.005636253 0.0045305425
000060 cc b7 c5 ba 80 a6 af bb 0c 88 bf 3c f9 37 6e bc
       -0.0015084683 -0.0053604245 0.023380302 -0.014539712
000070 0e 09 8a 3c 8e c8 11 3c c7 a7 18 bd 8b 7d bd 3c
       0.01685002 0.008897914 -0.03726938 0.023131153
000080 03 cb ff 3b 6d 9a 8b bb c5 36 d1 bb 65 ed 11 bd
       0.0078061833 -0.0042603523 -0.006384703 -0.035626788
000090 ea bb 26 bc db 8a b5 bc 5d e9 31 3c cd 2d 96 3c
       -0.010176638 -0.022160938 0.010858861 0.018332386
0000a0 50 1b 9e 3b 3d 6a 1d 3d 66 d5 d9 bc 16 34 42 3c
       0.0048250332 0.038431395 -0.026591014 0.011853239
0000b0 da 61 4c 3c bf f9 0e 3c cd ee bd bb 1c 8a 97 b9
       0.0124745015 0.008726536 -0.0057962895 -0.00028903864
0000c0 35 fb 01 3b da 76 12 bb c2 91 4c 3d 68 49 80 bb
       0.001983357 -0.0022348673 0.049943693 -0.0039150007
0000d0 4c ad 0e 3c a8 9d 01 bd ac f1 30 bd d4 39 16 3a
       0.008708309 -0.031644493 -0.043199226 0.0005730663
0000e0 23 e3 8c 3c 95 ec 71 bc ea af 0c bd 1a 2c a9 bc
       0.017198151 -0.014765878 -0.034347452 -0.020650912
0000f0 57 27 08 bd 5c c3 e9 ba 7c 51 88 3b fa 95 d7 bb
       -0.033240642 -0.0017834711 0.0041601043 -0.006579158
000100 1e 38 df 3c 16 b5 2a 3c f5 15 4a 3d e8 c4 c9 bb
       0.027248438 0.010419151 0.049337346 -0.0061575063
000110 9a 9a 3e 3d cb de f9 bb cf c6 9e 3c 53 20 ca 39
       0.04653416 -0.007625436 0.019381909 0.00038552526
000120 de 44 fb bc f9 dd 5f 3d 47 43 9b 3c 61 6f 64 3d
       -0.030672487 0.05465505 0.018952979 0.05577028
000130 aa 96 d4 bb 2d 38 08 3d bd 36 0b 3d 90 82 97 3d
       -0.006487687 0.0332567 0.03398775 0.0739795
000140 73 57 dd 3b 56 58 57 3c 8e ce 39 3d d5 65 ec 3c
       0.0067548095 0.0131436195 0.045363 0.028857151
000150 37 06 e0 bc dd 8f 0b 3d a5 49 1a be 49 fc 24 3d
       -0.027346713 0.034072746 -0.15067156 0.04027966
000160 d8 39 a8 3c a2 d5 1e 3d 06 38 5b 3d b2 25 39 3d
       0.020535395 0.038777955 0.053520225 0.045201965
000170 39 56 65 3d 6d c0 e4 3c 31 f7 3e 3d 40 31 0e be
       0.05599043 0.027923787 0.04662246 -0.13885975
000180 36 b8 08 3b 28 02 41 3d 6c 88 d1 3c 62 8a e5 3c
       0.0020861751 0.047121197 0.025577746 0.028020088
000190 1e d1 00 bd 14 da 3b 3d 03 e6 b7 bc 5d fa 84 3d
       -0.03144943 0.045862272 -0.022448545 0.064930655
0001a0 f1 5f a5 3b 4a 10 e9 3c 74 32 20 3c 10 ec 59 3d
       0.0050468375 0.02845015 0.009777654 0.053203642
0001b0 32 b6 0c 3d 21 a9 b9 3c db 16 7a 3d d9 b5 3e 3d
       0.034353442 0.022663655 0.061056953 0.046560142
0001c0 85 9c e3 bb 5d 9e 0b bd 03 fd 39 bc fa 65 09 3d
       -0.006946149 -0.034086574 -0.011351827 0.033544518
0001d0 1d 51 40 bc 06 b6 65 3d 76 56 0a 3d ed 2f c0 3c
       -0.011738089 0.056081794 0.03377386 0.023460353
0001e0 37 52 d7 3b 2e 43 0f bd 1c 31 2d 3d 8f 2c 46 39
       0.00657108 -0.034976177 0.042283162 0.00018899351
0001f0 df 16 0b 3d 91 68 bd ba 56 78 f4 3c ae be e3 3c
       0.03395736 -0.0014450719 0.029842537 0.027800884
000200 94 81 72 3c f9 d3 b7 bb 25 18 9b 3c 62 c2 46 3d
       0.014801402 -0.005609986 0.018932411 0.04852522
000210 91 ae 48 bb 30 f5 e0 3c 0f 39 68 3c f6 0d b8 3c
       -0.0030621628 0.027460665 0.01417376 0.022467595
000220 c0 ae 00 3d d2 7e 2d 3d db e5 e2 3a b0 e0 12 bd
       0.031416655 0.042357273 0.0017310934 -0.03585881
000230 e6 0a ed 3b 47 34 01 3c fc 5c f2 3a ce fb bf ba
       0.007233965 0.007885999 0.0018490846 -0.0014647187
000240 e2 d2 84 3b 32 bb 47 3c 85 5c be bb 1e 83 6d bd
       0.0040534595 0.012190627 -0.005809369 -0.05798637
000250 5f 92 1b 3b f6 a9 31 b8 55 92 cf bc b2 9d 9c bb
       0.0023738367 -4.2358377e-05 -0.025338331 -0.004779541
000260 61 3d e1 bb e7 a8 11 bd 10 a4 77 3c d5 00 73 3c
       -0.006873772 -0.03556147 0.015114799 0.014831741
000270 9c 77 90 3c 3c 4f 8f 3b 79 b7 96 bc 15 0d 6c 3a
       0.01763516 0.004373459 -0.018398033 0.0009004635
000280 2d b7 44 bb 16 e9 be 3a 30 1c 07 bc 75 34 3f bd
       -0.0030016408 0.0014565315 -0.0082464665 -0.046680886
000290 60 5c d0 3c 5a 45 92 bb 0a 25 95 3c 62 4b fb ba
       0.025434673 -0.0044638338 0.018206138 -0.0019172246
0002a0 b2 0c e7 3b a6 3c a1 3d 49 37 ac bc dc 8b c6 3c
       0.007051074 0.07872896 -0.021022456 0.024236612
0002b0 c4 cc 9a 3c 11 49 19 3b ac 92 13 3c a7 ee b9 bc
       0.018896468 0.0023389498 0.009007137 -0.022696806
0002c0 8d 06 92 bb ac 94 0e 3c 9d ee 20 3d f5 cd ca 3b
       -0.0044563473 0.008702438 0.03929006 0.006189103
0002d0 35 f5 f0 3b 6d 61 25 bc 11 ff c5 bc ab 2a 1a bc
       0.0073534497 -0.010094029 -0.024169477 -0.009409587
0002e0 d1 46 21 3d f6 5a ea 3b c9 fe ae bb 36 99 2b bd
       0.039374176 0.0071519567 -0.0053404314 -0.04189416
0002f0 a7 d2 6c bd f3 cd 77 3a 82 eb 77 3a 67 a6 60 3c
       -0.05781808 0.0009452991 0.00094573956 0.013711548
000300 2b 47 cf 3c eb 12 88 3c 07 13 2d 3d 76 77 89 bc
       0.02530249 0.016610583 0.042254474 -0.016780596
000310 49 88 2f 3d 0c 88 a2 3a 06 28 23 3d 70 3e ac 3b
       0.04285458 0.0012400164 0.03983309 0.0052564666
000320 08 57 84 bd ea e9 35 3d b8 64 53 3d 5c 75 49 3d
       -0.064619124 0.04441253 0.051609725 0.04918419
000330 b5 4f d9 bb ff b3 35 3d 05 5f c0 3c ce 1b c8 3c
       -0.0066318163 0.04436111 0.023482809 0.02442732
000340 36 5a ad bb 0a 10 99 bb 5b 8c 36 3d 63 b4 34 3d
       -0.005290295 -0.0046711015 0.044567447 0.044117343
000350 08 71 73 bc c3 3d ce 3c b6 b5 16 be 30 07 6b 3d
       -0.014858492 0.025175935 -0.14717755 0.0573799
000360 8c b9 9f 3c 7d fb 66 3c 84 6f 0f 3d 1f 3d 3b 3d
       0.019497655 0.014098045 0.03501846 0.045712586
000370 0a ab c0 3c d1 83 ed 3c 82 a6 8e 3c aa b0 0e be
       0.023519058 0.028993519 0.017413381 -0.1393458
000380 96 d7 0c bc 7a 21 f2 3c d0 04 23 3d e8 6f 27 3d
       -0.008596322 0.029556978 0.03979951 0.040878206
000390 ee ea 07 bd 49 e7 df 3c 88 c9 00 bc 22 b7 f8 3c
       -0.03318303 0.027331965 -0.007860549 0.030360762
0003a0 c0 90 cc 3b 25 0a a0 3c 44 4f a0 ba 1c fa e6 3c
       0.0062428415 0.019536087 -0.0012230654 0.028195433
0003b0 6c 40 ed 3c 0e 37 38 3d 86 0b f1 3c d8 5c 4c 3d
       0.028961383 0.04497438 0.02942444 0.04989323
0003c0 13 2c 9c 3c 75 33 81 bd e0 89 e9 3b db 29 0b 3d
       0.019063985 -0.06308643 0.0071270317 0.033975463
0003d0 fa 3d 3b bc 23 c0 39 3d b7 54 cd 3c 69 6b 40 b9
       -0.011428351 0.04534925 0.02506481 -0.0001835056
0003e0 8c f7 39 ba 70 50 34 bd c0 12 3e 3d cf 05 e3 bb
       -0.00070940773 -0.044022024 0.0464046 -0.0069281827
0003f0 7e 24 18 3d 26 e1 98 bb a1 99 f7 3c 1a bd 4a 3d
       0.037144177 -0.0046655117 0.030224623 0.049496748
